neenzaa.tflite (tflite, 206636 bytes, 9 tensors)

Const_1 f4 [32]
000000 45 57 1b bb 48 d0 bd bc 5b 81 20 bc 17 c2 01 bc
       -0.002370314 -0.023170605 -0.009796466 -0.00791981
000010 a9 a6 90 3c 8e f9 b7 bc 32 85 a1 3a 49 18 33 bc
       0.017657595 -0.022457864 0.001232302 -0.010931083
000020 08 53 db bc fc 19 36 bc 90 f9 b3 3c 37 64 a8 bc
       -0.02677299 -0.011114594 0.021969587 -0.020555599
000030 3d fd cd bb 0c 37 42 3b 71 c3 4f 3c be 14 90 3c
       -0.006286292 0.0029634861 0.012680874 0.017588016
000040 82 5a 99 3c ef 6c d0 bc 53 a9 87 ba 38 1f d3 bc
       0.018719915 -0.025442569 -0.0010350145 -0.025771722
000050 9b 3d 8a 3c e7 ba cc bb 5f e0 83 bc ee 27 01 bc
       0.016875079 -0.0062478664 -0.0160982 -0.007883055
000060 36 7f 0a 3c ad b5 38 3c 74 8c 1d 3c 84 e5 96 bc
       0.008453181 0.011273784 0.009616006 -0.018419988
000070 a0 42 44 bc 15 2a b0 3b 49 45 97 3b 28 4f 9e bc
       -0.011978775 0.0053761103 0.0046164137 -0.019324854

Const_4 f4 [32]
000000 1d ac 7a 3f 27 1d 77 3f c9 ae 79 3f 0c 8b 7f 3f
       0.97918874 0.9652886 0.97532326 0.99821544
000010 09 5b 80 3f a7 6b 7d 3f 45 6d 7f 3f 45 a3 7e 3f
       1.0027782 0.9899239 0.9977611 0.9946788
000020 4a d7 7f 3f be 9f 86 3f 62 59 82 3f c6 74 7f 3f
       0.9993788 1.05175 1.0183527 0.9978756
000030 d5 9d 82 3f b9 5b 81 3f 0b c2 7e 3f 50 79 7e 3f
       1.0204417 1.0106117 0.99514836 0.9940386
000040 c7 dc 7e 3f d8 3a 77 3f 88 ae 78 3f c3 5e 7d 3f
       0.9955563 0.96574163 0.97141314 0.9897272
000050 44 49 80 3f ce 78 7c 3f 03 cd 7e 3f 03 e2 7a 3f
       1.0022359 0.98621833 0.99531573 0.98001117
000060 11 6a 83 3f 73 79 81 3f 60 73 7f 3f 85 88 7f 3f
       1.0266744 1.0115188 0.99785423 0.9981769
000070 f3 28 7f 3f c1 cc 81 3f 45 18 7f 3f 1c 47 7f 3f
       0.9967186 1.0140611 0.9964641 0.9971788

Const_5 f4 [32]
000000 ce 46 ee 3b 0d ca 8a bb 6a fb a7 3b bc e8 0f bc
       0.007271624 -0.004235512 0.0051264064 -0.008783516
000010 31 96 a0 3b 0e 09 bb 3b 85 e4 31 bc 5e 55 98 bb
       0.0049007167 0.0057078665 -0.010857706 -0.0046488484
000020 fb 9d c4 b9 33 59 e3 3c a4 7d 6b 3c c0 3e 38 bc
       -0.00037501738 0.027752494 0.014373217 -0.0112454295
000030 d0 a1 aa 3a 02 75 94 3c 9f d3 26 3c 63 4b 1d bc
       0.0013018195 0.0181222 0.01018229 -0.009600493
000040 ab b1 c3 bc c2 68 60 bc 46 9c 5e 3c 25 a3 bc bb
       -0.02388843 -0.013696851 0.013587063 -0.005756753
000050 71 82 4d 3c 48 7e 07 3c df 1f 2f bc ab db 97 3b
       0.012543307 0.008269854 -0.010688751 0.0046343408
000060 8f 65 45 3b c0 80 eb 3c 70 9b 22 bc 64 60 3c bc
       0.0030120348 0.028747916 -0.0099247545 -0.011497591
000070 04 86 10 bc 94 38 dd 3b 36 2a c8 bb 88 1b 1a bc
       -0.008821014 0.0067511294 -0.0061085476 -0.009405978

Const_7 f4 [32]
000000 a0 ae 23 3e 92 9d e2 3d 08 76 5e bd 91 5d 27 3e
       0.15984583 0.110652104 -0.054311782 0.16344287
000010 82 79 d0 bd ff 98 5b bb 58 5d 24 bd 9c 7e 3c 3d
       -0.10179426 -0.003350794 -0.040128082 0.04601918
000020 6a 48 4c bc 71 57 4a ba 77 59 c0 bd 4c b7 d6 3d
       -0.012468437 -0.0007718718 -0.09392064 0.1048418
000030 d5 e3 8d 3c 17 bb 99 bd 87 2d 53 bd a6 1d 38 3d
       0.017320553 -0.07506388 -0.05155709 0.04495015
000040 00 73 02 be d3 5e 82 3c ff 74 f8 3c 37 99 3a 3e
       -0.12739182 0.015914356 0.030329226 0.1822251
000050 50 5d c4 3c dc 7e ad 3d 21 52 d2 3c 25 2e 7a 3d
       0.023970276 0.08471462 0.025673928 0.061079163
000060 17 99 ec bd 92 8d ea 3d 04 d3 1a 3e c0 b5 10 be
       -0.11552637 0.11452784 0.15119559 -0.14131832
000070 62 c1 13 3e 6a 8e a2 3d b7 6f a7 bd 15 c1 04 3d
       0.14429238 0.079373196 -0.08175605 0.0324107

Const_8 f4 [32]
000000 b3 5e 85 3f 1b 3e 84 3f fb fc 9f 3f 6a c3 a3 3f
       1.0419525 1.0331453 1.2499079 1.2794011
000010 b3 5e 81 3f a4 73 7e 3f fe c0 80 3f 1b 09 9d 3f
       1.0107025 0.99395204 1.0058897 1.2268404
000020 87 bf 6f 3f cc c5 81 3f 37 f0 7c 3f d9 df 8a 3f
       0.9365162 1.0138488 0.9880404 1.0849563
000030 4c ec 86 3f 3a 04 9e 3f 3d 45 8f 3f 39 e5 80 3f
       1.0540862 1.234504 1.1193005 1.0069953
000040 a8 dc 81 3f 12 1b 80 3f d9 e1 7f 3f a7 69 7f 3f
       1.0145464 1.0008261 0.9995399 0.9977059
000050 38 88 80 3f d4 30 ac 3f 03 26 88 3f 23 8b 82 3f
       1.0041571 1.3452401 1.06366 1.0198711
000060 09 8f 7f 3f 35 8c 9f 3f 87 b6 82 3f 78 9d 85 3f
       0.9982763 1.2464663 1.0211953 1.0438681
000070 b2 5b 9c 3f 83 ea 80 3f 7b aa 7f 3f 5b 9a a8 3f
       1.2215483 1.0071567 0.9986951 1.3172106

Const_9 f4 [32]
000000 20 61 83 3d f3 2b c6 3c 05 85 7b 3e 7e 13 83 3e
       0.064150095 0.024190878 0.24562462 0.2560081
000010 17 bb 83 3c db 67 87 bc b1 43 f9 3b 98 d6 73 3e
       0.016080422 -0.016529014 0.0076069464 0.2381233
000020 8f e4 76 bd b8 1c 0b 3b eb e4 c4 bb 9e 89 8a 3d
       -0.060276564 0.0021226835 -0.0060087345 0.0676453
000030 fd 26 ee 3c d2 24 7a 3e be 9c 56 3d f5 16 21 3c
       0.029071325 0.24428108 0.052395575 0.009832134
000040 d8 a5 8e 3b 61 e7 2b 3b 1f 29 1e ba c8 8e 20 bc
       0.004353266 0.0026230442 -0.0006033349 -0.009799667
000050 24 6d a1 3b 35 75 92 3e 6a c3 c7 3c 23 81 1d 3c
       0.0049263407 0.28605047 0.024385173 0.009613308
000060 08 51 05 bb 89 ee 79 3e a0 13 a6 3c 65 33 8e 3d
       -0.0020342488 0.244074 0.02027303 0.069433965
000070 cb 76 73 3e f9 53 37 3c ee dd 8f bb ff 60 8e 3e
       0.23775785 0.011189454 -0.0043904698 0.27808377

MatMul f4 [32, 1536]
000000 9f 16 0e 3c 08 ee a3 bc 6b 40 11 bc 6d 00 47 bc
       0.0086723855 -0.020010963 -0.008865456 -0.012146098
000010 24 c0 92 3b fa 8a af bc fb 24 b8 3b 61 dd 09 bc
       0.0044784714 -0.021428574 0.005619643 -0.008414597
000020 53 a2 04 3d 7f 40 23 3b 15 b6 27 bc d9 74 95 39
       0.032381367 0.002491027 -0.010236283 0.00028506553
000030 70 16 81 3c 0e 7f 4d 3a a9 93 3e bc d3 38 c0 bc
       0.01575777 0.0007839062 -0.011631885 -0.023464596
000040 6f 05 d6 3c 28 5a 08 bd 38 0b 5b 3c fc 11 34 3c
       0.026125638 -0.033289105 0.013369374 0.010990616
000050 20 86 a6 3c c1 01 5f bc 2a 13 a0 3c aa 13 b7 bb
       0.020327628 -0.013611258 0.019540388 -0.005587061
000060 a5 c8 46 3c 14 7e 1f 3c c9 e1 65 bc fc 99 23 bb
       0.012132798 0.009734649 -0.014030882 -0.0024963608
000070 03 2c ac bc ce 38 e6 3b 6b 65 80 bc 97 11 08 3c
       -0.02101708 0.0070258146 -0.01567336 0.008304975
000080 bd 28 2d ba 7d 87 0d bb 9e a9 12 3d 2c bb 86 bc
       -0.0006605497 -0.002159565 0.03580629 -0.016446672
000090 87 12 96 3c 2c db af 3c d3 02 17 3c 83 5c 99 3c
       0.018319381 0.021466814 0.009216982 0.01872087
0000a0 bf 48 ca bc 97 41 29 bc 27 b1 85 bc a1 5d b2 bb
       -0.024692891 -0.010330579 -0.016319824 -0.0054432903
0000b0 82 d5 59 3c 88 f6 94 3c 7a 62 aa 3c 3e c9 ae bb
       0.013295533 0.018183962 0.02079891 -0.0053340485
0000c0 8d 2b dd 3c 08 39 d5 bc 20 d2 91 3b 03 f6 8f 3c
       0.026998306 -0.026028171 0.0044500977 0.017573362
0000d0 03 a1 65 3b 41 ba 0b bd 97 49 71 bc e5 b8 0d bc
       0.0035038597 -0.034113172 -0.014727018 -0.008650039
0000e0 90 02 1f bc 8c 44 5f bc 94 f6 80 bc 19 52 f0 3b
       -0.009705201 -0.013627183 -0.015742578 0.0073340056
0000f0 f3 18 6c 3b b0 19 7b bc ad 07 8c bc ac 5a bc 3a
       0.0036025613 -0.015325949 -0.017093504 0.0014370284
000100 92 0f b8 3b d7 b4 ab bb 83 9c 35 ba b8 38 4b 3b
       0.0056170905 -0.0052400636 -0.0006927924 0.0031009149
000110 ba 36 c6 3b 3e 1c 07 bd 60 1f bd 3c 78 0f ba 3c
       0.0060490044 -0.03298592 0.02308625 0.022712454
000120 ae 63 a7 bc 81 d6 08 bb 91 f0 05 3c ef dc d0 bc
       -0.020433273 -0.0020879807 0.008175031 -0.025495974
000130 a0 5d 88 bc 51 52 03 3d 3a 90 e6 bb cd 71 87 3c
       -0.016646206 0.032060925 -0.007036236 0.016533757
000140 25 30 80 bc f9 16 aa 3a ba d8 76 bc 3a c9 ab bc
       -0.015647957 0.0012976817 -0.01506632 -0.020969976
000150 68 8e d9 bc cd da 1b 3d ce 77 62 3c 4b 6d 9b 3c
       -0.026557162 0.03805046 0.013822509 0.018973013
000160 5e 1e ed bb cb 13 c8 bb e9 92 25 bc db 1f b4 bb
       -0.007236286 -0.006105875 -0.010105827 -0.0054969615
000170 42 7f 88 bb 36 ac 1d bc e8 83 cb 3b ac 02 24 3c
       -0.004165561 -0.009623578 0.006210793 0.010010403
000180 5f 87 cc bb 6d e1 96 3a b1 99 8b ba 32 a9 3b 3b
       -0.0062417234 0.0011511274 -0.0010650662 0.0028634784
000190 22 cf 2d 3c 02 fc a2 bc 0d d4 98 3c 41 43 f8 bc
       0.010608466 -0.019895557 0.018655801 -0.030305507
0001a0 ef bc 00 3c 29 d4 82 3c bb 1c cd b6 c1 d5 b6 bc
       0.007857545 0.015970306 -6.1128208e-06 -0.022318723
0001b0 f0 1d ae 3c 3d 42 15 bc 8a fd 24 bc 41 c1 d6 3a
       0.02125451 -0.009110031 -0.010070214 0.0016384498
0001c0 cf ba 0d 3d 85 df bb bc 73 bc 29 3c 54 c6 d7 bb
       0.034601983 -0.02293373 0.010359871 -0.006584922
0001d0 ec af e2 ba 49 e3 33 bc 0f 30 99 bc c2 79 d5 ba
       -0.001729486 -0.010979482 -0.018699674 -0.0016286897
0001e0 f3 db e0 bc 95 42 8b bc 23 04 a5 3c dc 75 b1 3c
       -0.02744863 -0.016999522 0.020143574 0.021662645
0001f0 f0 a6 c2 3c cf 27 24 bc 6c d4 04 bc ae 8f 8c bc
       0.023761243 -0.010019257 -0.008107286 -0.017158356
000200 4a d3 25 bc 7b 4a 98 3c f3 37 0a bc dc 65 6d bc
       -0.010121176 0.018590203 -0.008436191 -0.014489617
000210 1c a8 43 bc fd 66 9c bc 51 8f 51 3c 76 37 1e 3c
       -0.011941936 -0.019092077 0.012790517 0.009656778
000220 cf b4 d2 3b cd 8b a7 3c 84 8d 71 bc 8c 1d 67 3b
       0.0064302455 0.020452404 -0.014743213 0.0035265414
000230 7a d4 d8 3c 84 12 b2 bc 1a e6 8e bc 53 9c 31 3c
       0.026468504 -0.021737345 -0.017443705 0.010840493
000240 03 dd e4 bb 7f df 56 3c 3a d3 4c bc 61 f1 ba bb
       -0.0069843545 0.013114809 -0.012501532 -0.005705044
000250 1a 6d 6c bb 2f 64 da bc 22 03 f8 bc a6 5b db bb
       -0.0036075772 -0.0266591 -0.030274931 -0.006694275
000260 a9 40 bd ba 88 0e 74 3c d2 36 c2 3c 50 53 2b bc
       -0.0014438826 0.014896043 0.023707781 -0.010456875
000270 2f ba 29 3c 5e b7 a0 3c d3 eb f4 bb a8 f1 de 3b
       0.010359331 0.019618686 -0.0074744015 0.00680371
000280 c1 da e7 bb 61 05 aa bc 23 b9 1a bd 2f d0 59 3c
       -0.007075638 -0.020754518 -0.037774216 0.013294264
000290 25 34 e5 bc fb e5 f4 bb b1 53 4a 3b 13 a5 e5 3a
       -0.027978966 -0.007473705 0.0030872638 0.001752051
0002a0 58 cd d1 3b d0 a8 58 bb c4 3b 0a ba 37 8c ac bc
       0.0064026527 -0.0033059604 -0.0005273188 -0.021062953
0002b0 7c 92 83 3b 7c c9 9f 3b 68 95 07 3c a9 b8 c8 bc
       0.004015265 0.0048763137 0.008275367 -0.024502115
0002c0 62 2f d8 3c 78 ff 9a 3c 2b 57 11 3a 5c eb ab bc
       0.026389781 0.018920645 0.00055443 -0.020986252
0002d0 ac f7 65 3b 75 e7 8b 3c 7a 16 51 ba 2c 86 01 bc
       0.003509025 0.01707814 -0.00079760666 -0.007905524
0002e0 93 7a 8d 3b 84 c7 69 3a 8b 13 7d bc c2 13 ec 3a
       0.0043175905 0.0008917975 -0.015446554 0.0018011259
0002f0 92 34 84 39 e7 8f aa 3b a4 65 8c bc 27 db b4 bc
       0.0002521617 0.005205143 -0.01713831 -0.022077156
000300 8b 27 c1 bb cf ce ec 3c 6f 9f 26 bb c5 af d5 3c
       -0.0058946065 0.028907208 -0.002542462 0.02608479
000310 f8 c0 f8 3b d9 7b 91 3c 14 b5 b7 3c a5 d5 21 3c
       0.007591363 0.01775925 0.022425212 0.009877597
000320 17 fa d5 3c 01 6f 4e bc c3 f8 b1 bc 4f 0c b9 3b
       0.026120229 -0.012599708 -0.021725064 0.0056472193
000330 c0 11 cf 3a 76 5d eb bb 75 aa 13 bc cc 2b ba 3b
       0.0015798137 -0.0071827723 -0.009012808 0.0056814905
000340 b5 60 0a bb 17 f9 5d 3c 19 17 d1 bb 74 40 c5 3b
       -0.002111477 0.013548157 -0.0063809273 0.0060196463
000350 1a 21 3f 3b de e8 8b bc df ac 36 3c b5 a7 1f 3c
       0.0029164017 -0.017078813 0.011149614 0.009744574
000360 e0 7f a0 bc 61 4f a9 bc 10 e0 39 bb 32 8e 2f bc
       -0.019592226 -0.020667734 -0.0028362311 -0.010715054
000370 de 14 cb bc e1 f9 51 3c f0 90 fb 3b 59 1d fe 3c
       -0.024790224 0.012815923 0.00767719 0.031019853
000380 0c c6 b9 3c 2f 1d e0 3b f1 d6 73 3a 39 2c 37 bc
       0.022677444 0.0068394165 0.0009301743 -0.011179977
000390 0a a0 b1 3c 97 85 a8 3a d0 ec 1b bc 50 89 1b bc
       0.021682758 0.0012857196 -0.00951691 -0.009493187
0003a0 61 16 7b 3c 48 14 d2 3b 48 08 ca 3c fc 48 8b 3b
       0.01532516 0.006411109 0.024662152 0.004250644
0003b0 66 02 a6 bc fc 42 d5 bc b3 05 a3 3c 0f 81 9d 3c
       -0.020264816 -0.026032917 0.019900179 0.019226579
0003c0 9d 29 9c 3b 47 cd 88 bb c8 64 54 bb 5d 7a c0 bc
       0.004765703 -0.0041748616 -0.0032408703 -0.023495847
0003d0 24 91 52 3b 08 b8 16 bc 45 5d 9c 3c e0 fb 9d 3c
       0.0032129968 -0.00919915 0.019087443 0.019285142
0003e0 62 3b 22 bc d2 b5 33 bc 7b 29 71 b9 a3 ea 69 3c
       -0.009901853 -0.010968642 -0.00022999004 0.014277133
0003f0 7a 0f c4 3b 2d d7 a3 3c 7f 51 5c 3c 02 83 9f 3c
       0.0059832903 0.020000065 0.013447165 0.01947165

MatMul_1 f4 [32, 32]
000000 4a b8 8a bd 03 90 e7 3d f3 e6 8a bc 31 d0 b0 3d
       -0.067734316 0.11306765 -0.016955828 0.08633459
000010 08 cf 05 be 63 02 6a 3d a7 32 2c 3c 56 ad 50 bd
       -0.13067257 0.057131182 0.010510123 -0.050946556
000020 ba ea b9 3d 36 67 8e bc 7b 55 03 3d b8 1a d9 3c
       0.09077974 -0.0173832 0.032063942 0.026501998
000030 24 0d 21 be 9a 18 e4 3d 7f 4f 19 be 38 df f8 bc
       -0.15727669 0.11137505 -0.14971732 -0.030379876
000040 db 04 15 3e 7c 14 60 3d 00 4a 42 bd 68 30 dc bd
       0.14552633 0.054707035 -0.047433853 -0.1075142
000050 c6 ba b3 bd 6e ef 07 3d 27 03 2e bd e8 37 ab bc
       -0.087758586 0.033187322 -0.042483475 -0.020900682
000060 79 f4 e5 bd cd 7e 5a 3d 9d 0e d6 bd 70 62 76 bd
       -0.1122827 0.053343583 -0.10452006 -0.06015247
000070 e7 c8 19 3e 69 2e 6d 3d df da 5a bc 66 c8 21 be
       0.15018044 0.05790559 -0.013357847 -0.15799102
000080 9e e8 72 3d 13 e8 85 bd 44 5d 67 bd b4 c9 17 be
       0.059303872 -0.06538405 -0.05648543 -0.14823037
000090 62 f3 11 be 8d 2f 8a bd 70 3a 23 3e 5f 92 6d 3c
       -0.14253 -0.06747351 0.15940261 0.01450023
0000a0 dd a9 e7 3c 0a 03 4a be 2e d7 75 bd 1f 65 15 3e
       0.02827924 -0.19727722 -0.060019664 0.14589356
0000b0 75 b5 f0 3b 3d 9a 0b 3e 5e f9 27 39 e3 9c 12 3d
       0.00734585 0.13633056 0.00016019258 0.03579415
0000c0 d0 73 09 3d 65 98 13 be 8e 29 40 3e 4d f0 42 3d
       0.033557713 -0.14413603 0.18765852 0.04759245
0000d0 94 bc 19 3e ea 98 f3 3d ed 7a 2c 3e 22 00 e8 bd
       0.15013343 0.118944004 0.16843767 -0.1132815
0000e0 a8 cb 56 3c 5d 5b 40 bd 18 5b 7e 3d 19 83 87 3d
       0.013110079 -0.04696213 0.062098593 0.06616802
0000f0 85 84 33 3d 5c 38 98 3d ac 50 d8 bd 52 c2 1e 3e
       0.043827552 0.07432625 -0.10562262 0.15503815
000100 03 ff b3 bc 8d 89 3a bc 9b 7e 1a 3e f5 fc 02 be
       -0.021972185 -0.011385334 0.15087359 -0.12791808
000110 47 8a d2 3d 6c 76 49 bd f9 10 97 3d 82 90 df bc
       0.102802806 -0.0491852 0.07376284 -0.027290586
000120 e9 55 76 bd 64 8d 1e 3e 65 82 04 3e 6c fa 01 3e
       -0.060140524 0.15483624 0.12940367 0.12693185
000130 fa b0 8e 39 ce 63 89 bc 38 eb d4 3c a4 e8 21 3e
       0.00027216208 -0.016771223 0.025991067 0.15811402
000140 2c 92 a6 bd 11 61 0e 3e 08 ce af 3d 6c 58 f2 3d
       -0.08133349 0.13904215 0.08584219 0.118332714
000150 87 b4 9e 3c a2 e3 96 bd 70 b5 e6 bd c2 25 0e 3e
       0.019373192 -0.07367636 -0.11265075 0.13881591
000160 80 1f c8 bd 92 cf b5 bd 5a bd 92 3d cb 49 f2 bb
       -0.09771633 -0.088774815 0.07165022 -0.0073940507
000170 b1 b1 87 3d 16 b0 af 3d 62 e7 bc 3d 05 60 0b 3e
       0.06625689 0.085785076 0.0922382 0.13610847
000180 56 35 c3 bc 61 4b 88 3d f7 6b 49 3d 5d 0d 14 3d
       -0.023829143 0.066550024 0.04917523 0.036145557
000190 75 ed b8 3b 93 2e 1a bd 89 10 26 3e a6 3e 04 bd
       0.0056435415 -0.037642073 0.16217245 -0.03228631
0001a0 47 5d 4b bd 3a 2b 21 3e ec cd 3e 3e f7 88 5f bd
       -0.049649503 0.15739146 0.1863324 -0.05457398
0001b0 96 a7 a9 3d 15 7f 10 be 3f bf 13 be 59 a1 20 be
       0.082839176 -0.14110978 -0.14428423 -0.15686549
0001c0 30 74 b2 bd da e5 97 bd 6e c7 1e 3d 36 ff b4 3d
       -0.08713567 -0.074168876 0.03876441 0.0883774
0001d0 0a 63 96 3d 3b 8e 35 3e 22 8e 1c be 84 d7 4d 3b
       0.07343109 0.17730038 -0.15288594 0.0031408975
0001e0 87 51 c6 bd 4c 6a e0 bd 9b dc 38 bd aa ed b0 bd
       -0.09683519 -0.109577745 -0.04513226 -0.08639081
0001f0 8a e6 56 3d 99 c0 f6 3d 7a 54 ac bd c2 55 a8 bd
       0.052465953 0.12048454 -0.0841455 -0.08219482
000200 7e c9 2b be f5 dc 70 bb ad a2 26 be 3d 5f b9 bd
       -0.16776082 -0.0036752794 -0.16272993 -0.090513684
000210 de d8 0c 3d 7f bc 37 3d 92 25 b0 bd 6c c5 2a 3e
       0.03438651 0.0448575 -0.08600916 0.16676873
000220 8b 5b 8c 3d df ac 84 3d 66 19 89 3d 40 1e aa bd
       0.06853398 0.06478285 0.066942975 -0.08306551
000230 34 6d 04 3d ca bb 49 bc ab ec ab bd 41 36 ca bd
       0.032330707 -0.012312839 -0.0839475 -0.09873629
000240 ec ef 27 bd 03 d1 21 3e fe 9e c2 bc ee 9c 02 3d
       -0.04100029 0.15802388 -0.023757454 0.03188794
000250 04 8d 4d 3d 33 fd 0f 3e 6e c7 2f 3e ae f0 48 bd
       0.05018331 0.14061432 0.1716592 -0.049057655
000260 11 98 02 be 52 81 39 3c 39 42 2d be 81 6b 2a be
       -0.12753321 0.011322336 -0.16919793 -0.16642572
000270 eb d4 2f 3d f4 0d 00 3e e2 e3 f3 3a 9b 43 10 be
       0.042927664 0.12505323 0.0018607343 -0.1408829
000280 69 3b dc 3d 59 89 0a 3d 8c 91 fd b9 55 f6 73 3d
       0.10753519 0.03382239 -0.0004836436 0.059561092
000290 e7 d5 10 3d 76 02 c9 bb fb 52 62 3d db 63 3d 3e
       0.035360243 -0.0061343266 0.055254918 0.18495123
0002a0 82 91 fd 3d dc 5d 95 bd f1 2d c2 3d cf d7 fb 3d
       0.12381269 -0.07293293 0.09481419 0.122970216
0002b0 b8 77 5c 3e 91 3c 08 3d 85 32 e5 bb 6d 81 04 be
       0.21530044 0.033260886 -0.006994548 -0.12939997
0002c0 79 c6 30 3e 9e 24 f2 3d a1 28 de bd 00 8e 8e 3d
       0.17263211 0.118233904 -0.10847593 0.06960678
0002d0 d1 06 f8 3d 5b 65 4f bd 7e 17 2b be 00 41 8c bd
       0.12110675 -0.05063377 -0.1670818 -0.06848335
0002e0 99 69 b0 3d a8 4c 08 be bc bc b1 3d ba 9b e3 bd
       0.08613891 -0.13310492 0.08678576 -0.11113687
0002f0 1b 08 2c be f4 05 21 3d 8b e6 04 be 3a b3 86 3d
       -0.16799967 0.039312318 -0.1297857 0.065771535
000300 71 59 0b 3e a6 3c d9 3d ec 73 45 3d 3a 27 27 3e
       0.13608338 0.10607271 0.048206255 0.16323557
000310 46 a9 80 bd 08 37 56 3d ec 2d 91 3c 48 b7 75 3d
       -0.06282286 0.052298576 0.017722093 0.059989244
000320 c1 fb 2f be ad e2 80 3d 2b d4 14 3c 86 16 d5 3d
       -0.1718588 0.06293235 0.009083788 0.10404687
000330 12 88 41 3d 1a 67 2c 3e e5 26 47 bd 48 ba 05 be
       0.047248907 0.16836205 -0.048621077 -0.13059342
000340 d6 dc da 3b e9 3c c8 bd 07 76 17 be e8 eb a2 3c
       0.0066791577 -0.09777243 -0.14791118 0.01988788
000350 b1 de 35 be 34 34 c0 bc 15 92 91 3d f2 10 d3 bb
       -0.17760731 -0.023462392 0.07107941 -0.006441229
000360 ce 54 39 3e ba 91 26 bd 76 c8 b5 3d 8e 97 03 bd
       0.18098757 -0.04066632 0.088761255 -0.032126956
000370 64 c3 db bc 12 0b eb bd f8 ec ee bd 82 24 85 3d
       -0.026826568 -0.11476721 -0.11666292 0.06501104
000380 68 b6 cf 3d 66 5a aa 3c fe 18 b2 3c 6a 7f 07 bd
       0.10142213 0.020795058 0.021740433 -0.033080496
000390 f7 1d 20 3e a2 5d 2b 3e 14 b9 09 3d 8f e2 4e bc
       0.1563643 0.16734937 0.03362377 -0.012627258
0003a0 d9 64 06 3e b4 25 88 bd cb 93 71 3e 5c 2d b0 bd
       0.13124408 -0.06647816 0.23591535 -0.086024016
0003b0 e3 09 fe bd ab 81 16 be 08 67 03 3d 13 9e 00 be
       -0.124042295 -0.14697902 0.03208068 -0.125603
0003c0 5c 0a 51 bd cd e8 b2 bd 96 4e 16 be f9 e1 ba bd
       -0.05103527 -0.087358095 -0.14678416 -0.09125132
0003d0 36 4b 39 3e 55 5b 58 3d 1d 7e 97 3d 12 4d e2 3c
       0.18095097 0.052821476 0.07397101 0.02762464
0003e0 2a fa b2 3d bf 9c a3 bc 82 bb 9d bd 4c 2a 4f bd
       0.08739121 -0.019972203 -0.0770178 -0.050577447
0003f0 27 c0 68 3d 8f 63 15 be 1b b7 10 be 75 0c eb bc
       0.056823876 -0.1458876 -0.14132349 -0.028692463

MatMul_2 f4 [1, 32]
000000 e8 98 87 3c c8 10 2a 3e 8e d6 b6 be cd e7 b6 be
       0.016552404 0.16607964 -0.35710567 -0.35723725
000010 1a 82 80 bc 1d 33 27 3d ee dd ad bc 22 78 be be
       -0.015687037 0.04082023 -0.021223988 -0.3720103
000020 74 83 12 bd dc 73 3a 3e 05 03 75 bd 28 25 48 3e
       -0.035769895 0.1820826 -0.059817333 0.19545424
000030 59 09 e0 3d cf 6f b2 be b8 6e f8 3d 13 92 d7 3d
       0.10939283 -0.34850928 0.12130493 0.10525908
000040 f0 16 1d 3e fb 42 4b 3c bf d2 99 3d 50 32 97 bc
       0.15340781 0.012406106 0.075109 -0.018456608
000050 6c c7 0d 3d 31 f7 b0 be 73 08 67 3e 04 2f f6 3d
       0.03461401 -0.34563592 0.22561817 0.12020686
000060 50 ab bf 3c 37 18 b9 be 8a 23 31 3e c5 dc 21 3d
       0.023397118 -0.36151287 0.17298713 0.039517183
000070 d1 8f b7 be f5 46 26 3e 46 a7 2d 3e 12 78 b4 be
       -0.3585191 0.16238005 0.16958341 -0.35247856
