neezaa.tflite (tflite, 206748 bytes, 9 tensors)

Const_1 f4 [32]
0	0xbacf0e2b	-0.0015797069
1	0xbca6c096	-0.020355504
2	0xbb8956e2	-0.0041912654
3	0xbcaa0d20	-0.020758212
4	0x3ccd2b58	0.025045082
5	0xbc44cf96	-0.012012383
6	0xb99ccba2	-0.00029906357
7	0xbbc0929f	-0.0058768536
8	0x3cb50574	0.022097327
9	0x3c973729	0.01845892
10	0x3b9fc67a	0.004875955
11	0xbca25726	-0.019816946
12	0x3c2a86cc	0.010408115
13	0x3ca19c55	0.019727865
14	0x3c9df3ef	0.019281356
15	0x3c75c31c	0.015000131
16	0xbb339f9b	-0.0027408365
17	0xbcb4d315	-0.022073308
18	0xbca174f3	-0.019709086
19	0xbc905f21	-0.017623486
20	0xbcbd1fb1	-0.0230864
21	0xbc0409e0	-0.008058995
22	0x3c48dc8e	0.012259616
23	0xbab20f29	-0.001358484
24	0xbcd44cbd	-0.025915498
25	0xbc98f224	-0.01867015
26	0x3cdf43cd	0.02725401
27	0xbbae2dca	-0.005315517
28	0xbbf2d104	-0.0074101705
29	0xbc97ddcf	-0.018538384
30	0xbca206ca	-0.019778628
31	0x3cc4d801	0.02402878

Const_2 f4 [32]
0	0x3f811740	1.008522
1	0x3f805012	1.0024436
2	0x3f824937	1.0178593
3	0x3f7f62f0	0.9976034
4	0x3f77639c	0.96636367
5	0x3f7dec4f	0.99188703
6	0x3f8175da	1.011409
7	0x3f7f3721	0.99693495
8	0x3f8040cb	1.0019773
9	0x3f823b9a	1.0174439
10	0x3f81443d	1.009895
11	0x3f83ad0f	1.0287188
12	0x3f7de78c	0.9918144
13	0x3f7c11f1	0.98464876
14	0x3f78494d	0.9698685
15	0x3f7cdae6	0.9877151
16	0x3f7f7a2c	0.99795794
17	0x3f7cd1f5	0.9875787
18	0x3f815c50	1.0106297
19	0x3f7f7faa	0.99804175
20	0x3f7cb658	0.98715734
21	0x3f7e595c	0.993551
22	0x3f82d15e	1.0220144
23	0x3f807116	1.0034511
24	0x3f78531b	0.9700181
25	0x3f7f27e1	0.99670225
26	0x3f821a5e	1.0164297
27	0x3f7dfe72	0.9921638
28	0x3f7f420f	0.9971017
29	0x3f7f79a6	0.99794996
30	0x3f7bb98d	0.98330003
31	0x3f7ec3e8	0.9951768

Const_3 f4 [32]
0	0x3bbe0994	0.0057994816
1	0xbb588277	-0.0033036747
2	0x3b5568ce	0.003256369
3	0xbc490df7	-0.012271396
4	0xbbe34ccb	-0.0069366447
5	0x3bdf75f3	0.0068194806
6	0xbb4343b3	-0.002979499
7	0xbc5ab029	-0.013347664
8	0xbb172396	-0.0023061982
9	0x3c21f1f6	0.009884348
10	0x3d2de541	0.04245496
11	0x3c199b8f	0.009375467
12	0xbc850a51	-0.01624027
13	0xbc63c5dc	-0.013902154
14	0x3bb4bc07	0.0055155787
15	0xbc12033f	-0.008911907
16	0xbc52b787	-0.012861139
17	0x3cb695a1	0.022288145
18	0x3c1cf013	0.0095787225
19	0xbb823523	-0.0039736195
20	0xbb53ba6d	-0.0032307163
21	0xbc0ffbab	-0.00878803
22	0x3c0f8139	0.008758836
23	0x3be882f2	0.007095688
24	0xbd0181f9	-0.031618092
25	0xbc1193ef	-0.008885368
26	0x3c0d533b	0.008625801
27	0xbc18355c	-0.009290066
28	0xbc5e772e	-0.013578219
29	0xbc0646d0	-0.008195594
30	0xbbbae29a	-0.0057032825
31	0x3b4465fb	0.0029968012

Const_5 f4 [32]
0	0xbd2c2457	-0.042026844
1	0x3e2226da	0.15835133
2	0xbdf2e965	-0.11860923
3	0x3dc4dada	0.09612055
4	0x3e18351c	0.1486401
5	0xbdf296a4	-0.11845139
6	0x3e257649	0.16158403
7	0xbe053e38	-0.13012016
8	0x3e15274e	0.14565775
9	0xbde932ac	-0.11386618
10	0x3c1a40e3	0.009414884
11	0xbe2101ed	-0.15723391
12	0x3c0c6aae	0.008570356
13	0xbdf34c5e	-0.118798
14	0x3e3c565c	0.18392318
15	0xbcf64abd	-0.030064935
16	0x3dcf288a	0.10115154
17	0xbda3dcb5	-0.08001081
18	0xbcab74b9	-0.020929681
19	0x3daf4a4a	0.085590914
20	0x3e068d8e	0.13139936
21	0xbd8982b5	-0.067143835
22	0xbdc71178	-0.09720129
23	0xbc623606	-0.0138068255
24	0x3c7cfd29	0.015441217
25	0xbd83e2e7	-0.064397626
26	0xbdd09897	-0.10185354
27	0x3e364282	0.17798808
28	0x3db890f0	0.0901202
29	0xbda6c91e	-0.08143829
30	0x3d19bc4d	0.037533093
31	0x3e106854	0.14102298

Const_6 f4 [32]
0	0x3f8f0cff	1.1175841
1	0x3f78b029	0.971438
2	0x3f7da570	0.9908056
3	0x3f7e3775	0.9930337
4	0x3fa43b5a	1.2830613
5	0x3fab781e	1.3396032
6	0x3f869d60	1.0516777
7	0x3f9c13c3	1.2193531
8	0x3f851b67	1.0398988
9	0x3f7f12a5	0.99637824
10	0x3fb23c06	1.3924568
11	0x3f7f76a6	0.9979042
12	0x3f84bc31	1.0369931
13	0x3f99eb72	1.2024977
14	0x3fa1ad2c	1.2630973
15	0x3f999a50	1.2000217
16	0x3f8f9c12	1.1219504
17	0x3f9890b7	1.1919163
18	0x3f865c54	1.0496926
19	0x3fa0029f	1.25008
20	0x3f852324	1.0401349
21	0x3f8ce6cf	1.1007937
22	0x3f8a50e1	1.0805932
23	0x3f83a06b	1.0283331
24	0x3f99be1b	1.201114
25	0x3f8040d6	1.0019786
26	0x3f9c6ece	1.2221315
27	0x3f8b623d	1.0889355
28	0x3f8791c0	1.0591354
29	0x3f8d0fbb	1.1020426
30	0x3f85f92b	1.0466665
31	0x3f7e9b04	0.99455285

Const_7 f4 [32]
0	0x3d6d5a73	0.057947587
1	0xbcf992b7	-0.030465467
2	0xbcb427a3	-0.021991557
3	0xbc624a36	-0.013811639
4	0x3e7f7057	0.24945198
5	0x3e89e093	0.2692915
6	0x3cece79e	0.028919037
7	0x3e61c998	0.22049558
8	0x3ccb3dcc	0.02480974
9	0xbc3b3a90	-0.011427537
10	0x3e947a24	0.28999436
11	0xbb0b0415	-0.002121215
12	0x3ccdef52	0.02513853
13	0x3e60b71c	0.2194485
14	0x3e73881b	0.23782389
15	0x3e5aca61	0.21366264
16	0x3dc9d97b	0.09855934
17	0x3e59c030	0.2126472
18	0x3cc6a7f5	0.02425001
19	0x3e755765	0.2395912
20	0x3d13619f	0.03598177
21	0x3d575573	0.052571725
22	0x3d8971fb	0.06711193
23	0x3caa310f	0.020775346
24	0x3e604af6	0.21903595
25	0x3c7a89c8	0.015291639
26	0x3e6818ad	0.22665663
27	0x3d8525a8	0.06501323
28	0x3d846fc1	0.06466628
29	0x3daf003b	0.08544966
30	0x3cca6691	0.02470711
31	0x3b957ba8	0.00456186

MatMul f4 [32, 1536]
0	0xbc17a655	-0.009255965
1	0x3af87f3c	0.0018958817
2	0x3c235afa	0.009970421
3	0x3bea05db	0.0071418113
4	0x3b99036a	0.0046695964
5	0x3b6edd65	0.003644788
6	0x3c13d337	0.0090225255
7	0x3b3df936	0.0028987653
8	0xbb6d687c	-0.0036225608
9	0xbb938425	-0.004501837
10	0x3c6e62ca	0.01454992
11	0x3c9afdff	0.018919943
12	0x3cd2ba39	0.025723564
13	0x3b973ac9	0.004615162
14	0x3b226113	0.00247771
15	0xbc48aad7	-0.012247763
16	0x3bb0e317	0.005398165
17	0xbb415bff	-0.0029504297
18	0x3d01f239	0.031725142
19	0xbc27c5d1	-0.010240034
20	0x3c015ea4	0.007896099
21	0xbbcbbde8	-0.006217707
22	0xbd0c5a2e	-0.03426569
23	0x3baa08e6	0.005189049
24	0x3b9ebbfe	0.0048441878
25	0xbb93863c	-0.004502086
26	0xbc8b551a	-0.017008353
27	0x3b63812f	0.003471445
28	0x3c98da61	0.018658819
29	0xbbdb00ee	-0.0066834604
30	0xbccbe6ea	-0.024890382
31	0xbbd7e1da	-0.006588203
32	0x3ab0a255	0.0013476113
33	0xbbc01d4f	-0.005862869
34	0x3c005799	0.007833385
35	0x3ae08817	0.0017130402
36	0x3ce636a4	0.028102227
37	0xbc94ea23	-0.018178051
38	0x3cf33e5e	0.029692825
39	0x3c9d4415	0.019197503
40	0x3ab4d985	0.0013797736
41	0x3bbac3fb	0.005699632
42	0x3c8a08f6	0.016849976
43	0xbc7f8381	-0.015595318
44	0x3cee54f4	0.029093243
45	0xb9904600	-0.00027517974
46	0xbc038b61	-0.008028836
47	0xbbb0e1a3	-0.0053979917
48	0xbc7dc7b7	-0.01548951
49	0xbcc64abb	-0.024205556
50	0xbc82e63e	-0.015978929
51	0xb9ed56bb	-0.00045268782
52	0x3c8075d2	0.015681181
53	0xbc9039a5	-0.017605612
54	0x3c0dc80f	0.008653655
55	0x3bb72e80	0.00559026
56	0xbc8291d4	-0.015938677
57	0x3d0212a5	0.031756062
58	0x3ca31699	0.019908236
59	0x3cb74197	0.022370143
60	0x3ae38e36	0.0017361108
61	0x3bbcd308	0.0057624616
62	0x3cabf442	0.020990495
63	0xbc4a0542	-0.012330355
64	0x3c94b210	0.018151313
65	0xbcd3c7df	-0.025852142
66	0xbc80c5f8	-0.015719399
67	0xbac4589b	-0.001498002
68	0x3c457430	0.012051627
69	0x3c84284a	0.016132493
70	0x3cac3a5a	0.021023918
71	0x3c0b2520	0.008492738
72	0xbc97e8e6	-0.018543672
73	0xbcd1e9c2	-0.02562416
74	0x3b8fd53b	0.0043894327
75	0xbc4430a6	-0.011974489
76	0xba865123	-0.0010247569
77	0xbcb14c4d	-0.021642828
78	0x3c8f6248	0.017502919
79	0x3c27f93c	0.010252293
80	0xbb47fe45	-0.0030516547
81	0x3bcd5e26	0.006267327
82	0x3ccdb4c0	0.025110602
83	0xbcf483fa	-0.029848088
84	0xbcb77f8d	-0.022399688
85	0x3c8bfc89	0.017088192
86	0x3d212e7a	0.039350964
87	0x3ccf4f3a	0.025306333
88	0xbc628b68	-0.013827182
89	0x3cd54389	0.02603318
90	0xbb8cb8eb	-0.004294505
91	0xbc790a2f	-0.015200182
92	0xbb874794	-0.004128406
93	0xbcda2f60	-0.026633918
94	0x3b164687	0.0022930221
95	0x3b3ff317	0.002928918
96	0x3c9bf065	0.019035527
97	0xbc462dec	-0.01209591
98	0x3ca462a3	0.020066565
99	0x3cd5c68c	0.026095651
100	0x3cec39ae	0.028836098
101	0x3a8060b9	0.0009794451
102	0x3ca9e56d	0.020739282
103	0xbc292204	-0.010323051
104	0xbb2424b2	-0.0025046286
105	0xbc8ebb3c	-0.017423265
106	0x3bcd7b43	0.0062707975
107	0x3c1418a3	0.009039077
108	0x3cf1ae89	0.02950217
109	0xbc185f8b	-0.009300123
110	0x3ca59075	0.020210484
111	0x3c3c7d62	0.011504503
112	0xbb0e0f09	-0.0021676442
113	0xbd06c230	-0.032900035
114	0x3d15a4b3	0.036534023
115	0x3c05f7db	0.008176769
116	0x3bc26bd2	0.0059332633
117	0x3c4a90a8	0.01236359
118	0xbc944da8	-0.018103436
119	0x3c1d43eb	0.009598712
120	0xbb29276b	-0.0025810848
121	0x3b8cbb25	0.0042947703
122	0x3bb4b322	0.0055145184
123	0x3c7b5bde	0.015341727
124	0xbc5a26be	-0.013314901
125	0xbc1ae215	-0.009453316
126	0xbc1ca0fb	-0.009559865
127	0x3c01746a	0.00790129
128	0x3b4d708b	0.0031347598
129	0x3b0ebf20	0.00217814
130	0x3cde56bb	0.027140966
131	0xbc10092a	-0.008791247
132	0xbc8cf2d5	-0.017205635
133	0xbb9bb02a	-0.004751225
134	0xbc9d9063	-0.019233888
135	0x3c3f2b17	0.011667988
136	0xbc5a5f6c	-0.013328414
137	0xbc138f4a	-0.009006331
138	0xbc7088be	-0.014681039
139	0xb9dd2fde	-0.0004218807
140	0x3c378404	0.011200909
141	0xba6cf45d	-0.00090390985
142	0xbbb5a349	-0.0055431467
143	0xbc777025	-0.015102421
144	0x3cd45831	0.02592096
145	0xbc65c6e7	-0.014024473
146	0xbba3b90a	-0.0049964236
147	0xbc873211	-0.016503366
148	0x3caff310	0.021478206
149	0xbd0641c1	-0.03277755
150	0xbc1dfa62	-0.009642215
151	0x3c6eeffe	0.014583586
152	0x3c257970	0.010099754
153	0x3c81813f	0.0158087
154	0x3c7b912c	0.015354436
155	0xbcc01c99	-0.023451136
156	0xbc4641f4	-0.012100685
157	0xbc7305f4	-0.014832962
158	0xbc893490	-0.016748697
159	0x3c9f9229	0.019478874
160	0xbc8d2dd7	-0.017233772
161	0xbc1e5da7	-0.009665883
162	0xbaa12fe4	-0.0012297598
163	0xbc9ab527	-0.018885208
164	0x3ba314a7	0.004976827
165	0xbcb5bb25	-0.022183964
166	0x3cdab450	0.026697308
167	0x3c59de28	0.013297595
168	0xbccacdd1	-0.024756344
169	0xbc5d81f8	-0.0135197565
170	0xbb9de9d3	-0.004819134
171	0x3c96b288	0.018395677
172	0xbb481ffd	-0.0030536645
173	0x3c427cfe	0.011870621
174	0xbad80030	-0.0016479548
175	0xbbd918b2	-0.0066252584
176	0x3cda89eb	0.026677093
177	0xbbbaef77	-0.005704816
178	0xba6111a5	-0.0008585698
179	0xbc0897dc	-0.008336987
180	0x3c7b07ff	0.015321731
181	0xbcc6ce06	-0.024268162
182	0xbc89107c	-0.016731493
183	0xbc7d20dc	-0.015449729
184	0xbbbb2272	-0.0057108933
185	0x3c12172a	0.008916656
186	0xbce9d353	-0.02854315
187	0x3ccb36e7	0.024806453
188	0x3be85ca4	0.0070911217
189	0xbc8e621e	-0.01738077
190	0x3a0a2f09	0.0005271291
191	0x3c747b5d	0.01492199
192	0xbcd7ea66	-0.026356887
193	0x3bf12c8c	0.0073600467
194	0xbc0a7b35	-0.008452226
195	0x3b8e9871	0.0043516685
196	0xbcc79163	-0.024361318
197	0x3c5f8cab	0.013644378
198	0x39acc724	0.00032954768
199	0xbc0a5af9	-0.008444541
200	0x3a66689f	0.00087893935
201	0x3b99d32f	0.0046943645
202	0xbc178de5	-0.009250139
203	0x3c28bca1	0.010298879
204	0x3c879c7e	0.016554113
205	0x3b5eb640	0.0033983141
206	0xbbb71d6d	-0.0055882246
207	0xbcbf1dbe	-0.023329612
208	0xbcc449ee	-0.023961034
209	0xbc05971c	-0.008153703
210	0xbc53407c	-0.012893792
211	0xbcb1a54b	-0.021685263
212	0xbc59f93e	-0.013304053
213	0x3ccaf4b2	0.024774883
214	0xbc33201c	-0.010932948
215	0xbbfe43bf	-0.007759541
216	0x3b24440f	0.002506498
217	0xbcac725e	-0.021050628
218	0xbbaf6584	-0.005352678
219	0xbbbee98b	-0.0058261803
220	0x3c657720	0.014005452
221	0x3b2107e4	0.0024571354
222	0xbc8468e9	-0.016163306
223	0xbc4029c4	-0.011728708
224	0xbcca39ac	-0.024685703
225	0x3a16b8fe	0.0005749612
226	0x3c83ad4a	0.016073842
227	0x3bb3ec51	0.0054908176
228	0xbc97f0c6	-0.018547427
229	0xbc7b6267	-0.015343285
230	0xbd03371a	-0.03203497
231	0x3cad4740	0.021152139
232	0xbd184218	-0.037172407
233	0xbd0d1dfa	-0.034452416
234	0x3ad84080	0.0016498715
235	0xbc877cf0	-0.016539067
236	0x3cdb367b	0.026759377
237	0xbc7555b6	-0.014974048
238	0xbae74896	-0.0017645534
239	0x3cd614b2	0.026132915
240	0xbc8221bd	-0.015885228
241	0xbd37cb15	-0.04487141
242	0xbc8a9553	-0.016916906
243	0x3c9cdb65	0.019147584
244	0x3c9662e2	0.018357698
245	0x3c004fd6	0.007831534
246	0xbc9588d9	-0.01825373
247	0x3a6efced	0.00091166684
248	0x3c6330f4	0.013866652
249	0xba465bf0	-0.00075668003
250	0xbcc113d1	-0.02356902
251	0x3c26d05d	0.010181514
252	0xbca67a62	-0.020322029
253	0xbbae9e2f	-0.0053289155
254	0xbb8d83f3	-0.004318708
255	0x3c6c81a6	0.0144352075

MatMul_1 f4 [32, 32]
0	0xbdc474ea	-0.09592612
1	0xbdcc2550	-0.09968054
2	0xbda65132	-0.081209555
3	0x3cdea156	0.02717654
4	0xbdead457	-0.11466282
5	0xbdbddb9d	-0.092704035
6	0xbcd4ee62	-0.025992576
7	0xbe0c2341	-0.13685323
8	0x3e02abd7	0.12760864
9	0xbe01d965	-0.12680586
10	0x3e29dfd1	0.16589285
11	0xbdfa5c32	-0.12224616
12	0x3d23950b	0.03993706
13	0x3cd5a59c	0.026079945
14	0x3e22349c	0.15840381
15	0x3c395c56	0.0113135185
16	0x3b9359d5	0.004496793
17	0x3e5b2e46	0.2140437
18	0x3e0c4d9a	0.13701478
19	0xbdd6852b	-0.104746185
20	0x3da32de3	0.079677366
21	0x3e15293e	0.14566514
22	0xba912e2e	-0.0011076385
23	0x3dba0fa9	0.09085018
24	0x3bc3ad4b	0.005971586
25	0x3d8e0975	0.069353975
26	0xbda6e852	-0.0814978
27	0xbdbad307	-0.091222815
28	0xbdd92484	-0.10602668
29	0x3de27712	0.11057867
30	0xbe1e5081	-0.15460397
31	0xbe05e021	-0.1307378
32	0xbd3286a6	-0.043585442
33	0xbd3888ba	-0.045052268
34	0xbdf95f98	-0.12176436
35	0xbdacf1bc	-0.08444545
36	0xbdd93b39	-0.10606999
37	0xbc274571	-0.010209427
38	0xbe369eb4	-0.17833978
39	0xbd1f92cf	-0.038958367
40	0x3d0452ba	0.032305457
41	0x3dc5e672	0.096630946
42	0xbd33a2fe	-0.043856613
43	0x3dc7d570	0.09757507
44	0xbdd766f3	-0.10517683
45	0xbcff9aad	-0.031201685
46	0x3cdce7e8	0.02696605
47	0xbd111d95	-0.035428602
48	0x3e0d2536	0.13783726
49	0x3d8fd4de	0.07023023
50	0xbc3e7b58	-0.011626087
51	0x3d22b5e6	0.039724253
52	0xbd67fa14	-0.056634977
53	0xbcdb63b0	-0.026780933
54	0xbd1dcbb1	-0.038524333
55	0x3e09fdae	0.13475677
56	0xbda6a70a	-0.08137329
57	0x3e186137	0.14880835
58	0xbe1256fd	-0.14290996
59	0xbd11927f	-0.0355401
60	0xbde39f15	-0.11114327
61	0xbdfce5d9	-0.123485275
62	0xbd840421	-0.064461
63	0xbe0d9c57	-0.1382917
64	0x3dbe1e51	0.09283126
65	0xbdcee59d	-0.10102389
66	0xbd1a52f8	-0.03767678
67	0x3d3a01e2	0.04541195
68	0x3de3018d	0.1108428
69	0xbc211797	-0.009832284
70	0x3e208202	0.15674594
71	0x3e2145ed	0.15749331
72	0x3d8a6603	0.067577384
73	0xbdde1989	-0.10844714
74	0xbd875720	-0.06608415
75	0xbd83569e	-0.06413005
76	0xbdc5fd9b	-0.09667512
77	0xbd591e42	-0.05300737
78	0x3da7c887	0.081925444
79	0xbdf910c2	-0.121613994
80	0x3bb433c0	0.005499333
81	0xbd8d8103	-0.06909373
82	0x3e0e3aaf	0.13889574
83	0xbd7fbdd0	-0.06243688
84	0x3d738f20	0.059462667
85	0x3dc212a5	0.094762124
86	0x3e5b59e1	0.21421005
87	0xbdc1d9c6	-0.09465365
88	0xbe3f6fe6	-0.1869503
89	0xbcea03ee	-0.028566327
90	0xbd2aaa76	-0.04166647
91	0x3d402497	0.046909895
92	0x3dc49635	0.09598962
93	0x3e1e1bef	0.15440343
94	0x3e0111dc	0.12604469
95	0xbd8a15f6	-0.0674247
96	0xbdbc4bd3	-0.0919415
97	0x3e29790e	0.16550085
98	0xbe3d3f78	-0.18481243
99	0x3e212a82	0.15738872
100	0xbe175a10	-0.1478045
101	0x3e127844	0.1430369
102	0x3c7bc9fb	0.01536798
103	0x3c397174	0.011318553
104	0xbd93def6	-0.07220261
105	0x3d820f29	0.06350548
106	0x3d864703	0.06556513
107	0x3dc48e14	0.09597412
108	0x3e0ae809	0.13565077
109	0xbe154f6b	-0.14581077
110	0xbd96f1e2	-0.07370354
111	0x3cb8ace7	0.022543384
112	0x3df12783	0.117751144
113	0xbe2920a1	-0.16516353
114	0x3cabf540	0.020990968
115	0x3dd25212	0.1026956
116	0x3df137ab	0.11778196
117	0xbc9639e7	-0.018338157
118	0xbdffc747	-0.12489181
119	0x3d32d837	0.04366323
120	0xbd81c722	-0.0633681
121	0xbe2cbb46	-0.16868314
122	0xbd07fb36	-0.033198558
123	0xbda87d89	-0.08227069
124	0xbdf3d60a	-0.11906059
125	0x3e0ad4da	0.13557759
126	0x3c5c9623	0.01346353
127	0xbc366350	-0.011132076
128	0x3d81ed2e	0.063440666
129	0x3d749008	0.05970767
130	0x3e150358	0.14552057
131	0xbe11956c	-0.14217156
132	0x3e3b7967	0.1830803
133	0xbba529e7	-0.0050403955
134	0x3c4ceedf	0.012508123
135	0xbdc7f8f4	-0.09764281
136	0xbd04e52a	-0.03244511
137	0x3df36769	0.11884958
138	0x3de754ff	0.112955086
139	0x3dcbba4a	0.09947641
140	0xbe171b93	-0.14756612
141	0xbe248486	-0.16066179
142	0xbdde8393	-0.108649395
143	0xbc8f3b45	-0.017484317
144	0x3e2fa797	0.17153774
145	0xbe0dafe6	-0.13836631
146	0xbe14b65b	-0.14522688
147	0x3d5600b3	0.05224676
148	0xbda50d3f	-0.08059167
149	0xbb71a4f3	-0.0036872
150	0xbd8ff807	-0.07029729
151	0xbd8e4782	-0.06947233
152	0x3df4fb32	0.11961974
153	0x3ce5d6a8	0.028056458
154	0xbda98245	-0.082768
155	0x3d1413d9	0.03615174
156	0xbd69fd92	-0.05712659
157	0x3d9c362a	0.076275185
158	0x3d6617b0	0.056174934
159	0x3e16ea84	0.14737898
160	0xbd43801a	-0.04772959
161	0x3dc3596e	0.09538542
162	0x3d1ae436	0.037815295
163	0x3e1289b4	0.14310342
164	0x3e24c57f	0.16090964
165	0x3d48912e	0.04896658
166	0x3dd54b19	0.10414714
167	0x3e08a4a1	0.13344051
168	0xbdaedb74	-0.08537951
169	0x3df16dc7	0.117885165
170	0x3d6d4813	0.057930063
171	0x3cbb1739	0.022838222
172	0xbdd5e821	-0.10444666
173	0x3e0b2435	0.1358803
174	0x3e02d85a	0.12777844
175	0x3d9724b7	0.0738005
176	0xbe07b4d8	-0.1325258
177	0xbdf15e43	-0.11785557
178	0xbe07ca3f	-0.13260745
179	0xbe2184fa	-0.15773383
180	0x3e0e1287	0.13874255
181	0xbd4f77a8	-0.050651222
182	0xbc3cc477	-0.01152145
183	0x3dc65fba	0.09686227
184	0xbe082f95	-0.13299401
185	0xbdcbc775	-0.09950153
186	0x3dee3913	0.1163198
187	0x3dde0f00	0.10842705
188	0xbd87ce8c	-0.066311926
189	0xbdf51192	-0.11966242
190	0x3daff70c	0.08592042
191	0x3dd6f1d3	0.10495343
192	0x3e15dcc1	0.14634992
193	0x3d8c0f8b	0.06838902
194	0xbdc8123b	-0.09769102
195	0x3e09a7a3	0.13442855
196	0xbe1582ce	-0.1460068
197	0x3d0c0015	0.034179766
198	0xbe16099c	-0.14652103
199	0xbdd9f751	-0.10642875
200	0xbdc8d89a	-0.098069385
201	0xbdbb7fa5	-0.09155206
202	0x3e39c1f7	0.18140398
203	0xbe19ea23	-0.15030722
204	0x3c0b127c	0.008488294
205	0xbde20248	-0.11035591
206	0x3b4dfe9c	0.0031432277
207	0x3e2f277f	0.1710491
208	0x3def8d36	0.11696856
209	0x3e0aac99	0.13542403
210	0x3d81b907	0.06334119
211	0xbb613b95	-0.003436779
212	0xbd5b16a2	-0.05348838
213	0x3e24e200	0.16101837
214	0xbd879466	-0.06620102
215	0xbe108287	-0.14112292
216	0x3e1da843	0.15396218
217	0x3e1b8c24	0.15190178
218	0xbe32d7f0	-0.17465186
219	0xbd17263e	-0.036901705
220	0x3e065736	0.13119206
221	0x3cd428d1	0.025898369
222	0x3e1e3c5f	0.15452717
223	0x3da9f991	0.08299554
224	0x3e509617	0.20369755
225	0x3dbed738	0.093183935
226	0xbdc4fb20	-0.09618211
227	0xbad1e929	-0.0016014922
228	0x3dd2118e	0.102572545
229	0xbe0839ea	-0.13303342
230	0x3d854fd2	0.06509365
231	0xbd1456f9	-0.036215756
232	0x3e115401	0.14192201
233	0xbd8da71a	-0.06916638
234	0x3df1edb9	0.1181292
235	0xbd587955	-0.052850086
236	0x3d8ed119	0.06973476
237	0xbb9139ab	-0.0044319234
238	0x3e2e1f17	0.17004047
239	0xbd842ab7	-0.0645346
240	0xba753c81	-0.0009355024
241	0x3baa2bbd	0.0051932023
242	0xbcab16c2	-0.020884875
243	0xbe33bbb4	-0.17552072
244	0xbe023e96	-0.12719187
245	0x3d556f6e	0.05210822
246	0xbe2866aa	-0.16445413
247	0x3e15d7be	0.1463308
248	0x3d1de6ec	0.038550302
249	0xbe07eca3	-0.13273863
250	0x3de55d26	0.11199407
251	0xbc833aa8	-0.01601918
252	0x3d88c779	0.066786714
253	0xbdd1091c	-0.102068156
254	0x3de07c36	0.10961191
255	0x3e1900ec	0.14941758

MatMul_2 f4 [1, 32]
0	0x3e7c9496	0.24666056
1	0xbddc2877	-0.107499056
2	0xbde08200	-0.109622955
3	0xbcc82f8b	-0.024436733
4	0xbe9a8c49	-0.30185154
5	0xbea76923	-0.326974
6	0x3e0be4e6	0.13661537
7	0xbea9b92b	-0.33149084
8	0x3e5843a7	0.21119557
9	0x3e3128c2	0.17300704
10	0xbeb38429	-0.35061768
11	0xbc9b28db	-0.01894038
12	0x3dcb95b7	0.09940665
13	0xbe96e178	-0.29468894
14	0xbea556ca	-0.32292777
15	0xbeacaaf6	-0.33724183
16	0x3ddefc8b	0.108880125
17	0xbea86321	-0.3288813
18	0x3e4943fb	0.19654839
19	0xbe93dc46	-0.28878993
20	0x3c7f679b	0.015588666
21	0x3dacffc3	0.0844722
22	0x3d8a7fee	0.06762682
23	0x3e0c5331	0.1370361
24	0xbea243f8	-0.3169248
25	0xba07b0e2	-0.0005176199
26	0xbe994ff9	-0.29943827
27	0x3e1e0123	0.15430121
28	0xbdd91759	-0.10600156
29	0x3dc2158a	0.094767645
30	0x3e16b5db	0.1471781
31	0x3c4965b4	0.012292314
