nind'za!!.tflite (tflite, 206748 bytes, 9 tensors)

Const_1 f4 [32]
000000 6b a4 07 3c b1 1a 20 bc 8b a1 44 bc 4d fa a7 3c
       0.008278946 -0.009771989 -0.0120014055 0.020505095
000010 a1 5b 92 bc fe 14 dd bb 4f 1b 42 bc 2d 7f 92 bc
       -0.017865958 -0.006746887 -0.011847331 -0.017882908
000020 3f 10 28 3a c9 e8 90 bc db 31 c1 3b b0 81 c1 3c
       0.0006411112 -0.017689126 0.005895836 0.02362141
000030 29 be 64 3b eb e5 1e bb 85 0c 78 bc 3d 77 0e 3c
       0.0034903383 -0.0024245929 -0.015139704 0.008695421
000040 3d 63 de 3a ea 08 82 bc ec 05 0e bb 34 7f d4 bc
       0.0016966831 -0.015873391 -0.002167101 -0.025939561
000050 15 3b 8a 3b 6b 04 c2 3c fc 77 03 bc a0 e9 7b 3a
       0.004218469 0.023683747 -0.008024212 0.0009609703
000060 c1 1e 73 3b c7 91 3b 3c 4f c6 09 bc 68 9e af ba
       0.0037097188 0.01144833 -0.008409097 -0.0013398649
000070 3d dc aa 3c e1 b6 2c bc c0 3b dc bb 78 2f 1e 3c
       0.02085697 -0.010541649 -0.00672099 0.009654872

Const_2 f4 [32]
000000 64 dd 77 3f 36 e1 7d 3f da c3 7e 3f fe 61 84 3f
       0.9682219 0.9917177 0.99517596 1.0342405
000010 9d dd 7b 3f d0 08 82 3f 23 c7 88 3f 12 1a 7d 3f
       0.9838503 1.0158939 1.0685772 0.98867905
000020 c7 b1 84 3f c8 fd 7a 3f 41 bf 80 3f d1 c8 74 3f
       1.0366753 0.9804349 1.0058366 0.9561892
000030 41 c0 7b 3f 75 6d 7b 3f d7 94 7a 3f 55 56 81 3f
       0.9834023 0.98213893 0.9788336 1.0104471
000040 4d e1 7c 3f fb e2 74 3f f8 80 86 3f 23 ff 7c 3f
       0.9878128 0.95658845 1.0508108 0.9882681
000050 4c 14 76 3f 6b db 78 3f 95 a7 7e 3f 2b 15 82 3f
       0.9612472 0.97209805 0.9947446 1.016271
000060 06 73 80 3f 52 76 81 3f f7 9d 80 3f c0 49 7f 3f
       1.0035102 1.0114233 1.0048207 0.9972191
000070 02 79 7d 3f 99 ae 7d 3f 0e 39 83 3f e9 d6 83 3f
       0.9901277 0.9909454 1.0251787 1.029996

Const_3 f4 [32]
000000 77 00 d8 bc 6d 00 07 3c a3 67 a4 bc 3c 2b 43 3a
       -0.02636741 0.008239848 -0.02006895 0.0007445102
000010 9c 7f f6 3c 4f 45 bf 3a e1 7a 8e bc f3 61 3a bc
       0.030090146 0.0014592799 -0.017392578 -0.011375892
000020 6d b6 60 3c d2 f6 36 bd 34 1c 23 3c ae 28 81 3b
       0.013715369 -0.04466898 0.009955455 0.003941617
000030 07 31 e5 bc 3d 13 90 bc 01 8d d9 bc 59 47 2a bc
       -0.02797748 -0.017587299 -0.026556494 -0.010392987
000040 42 4a a0 bc ac e7 80 bd 01 ca e1 3b fd d3 5f ba
       -0.019566659 -0.06294188 0.006890536 -0.00085383636
000050 37 8f cc 3a 94 61 f5 bc 7c a6 01 bc 5a a7 65 3c
       0.0015606646 -0.029953755 -0.007913228 0.0140169505
000060 07 6f 4c 3c ef 66 0b 3d c4 c1 53 bc 06 7f ad bc
       0.012477643 0.034033712 -0.012924615 -0.021178734
000070 f4 71 db 3b 90 51 ac bc fc 7b 80 3c b6 4c 50 bb
       0.006696934 -0.021034986 0.01568412 -0.0031784005

Const_5 f4 [32]
000000 b2 09 bf bc 4d 46 27 be 65 b6 b9 bd e2 bd 5f 3d
       -0.023320053 -0.16335411 -0.09067992 0.054624446
000010 20 23 b4 bd 9e 4b 00 3e 89 a5 0e bd 17 23 be 3d
       -0.08795762 0.12528846 -0.034825835 0.092840366
000020 91 44 57 bc 0b 91 5f bd 53 1f 5f bd dd 3c b0 3d
       -0.013138906 -0.054581683 -0.054473232 0.08605359
000030 75 dc 28 3e 95 ff 07 be 2e b7 1e bd 56 00 bb 3d
       0.16490348 -0.1328109 -0.038748913 0.091309234
000040 e3 00 0f bd f7 fb cf bc c6 ea 06 be 97 b3 1f ba
       -0.034912955 -0.0253887 -0.13175496 -0.00060921296
000050 8b 35 35 be 19 4d 21 3e ac df be bd b9 00 de bd
       -0.17696206 0.15752067 -0.09320006 -0.108399816
000060 47 71 01 3d d3 15 eb 3d 51 7a c9 3d 69 76 f2 bb
       0.03160217 0.11478772 0.09837783 -0.0073993695
000070 be fd bc bd 34 8b 7d bd 6d 4c 93 bd b6 ba 1f 3e
       -0.09228085 -0.061900333 -0.071923114 0.15598568

Const_6 f4 [32]
000000 b0 1a a7 3f 24 2e 9e 3f 9b d8 8a 3f bc 28 83 3f
       1.3055019 1.2357831 1.0847353 1.0246806
000010 59 64 a2 3f 47 29 83 3f ac ec 88 3f fa d7 88 3f
       1.2686874 1.0246972 1.0697227 1.0690911
000020 2c e3 9a 3f 58 a3 a4 3f 00 e2 83 3f 5b 54 83 3f
       1.2100577 1.2862349 1.0303345 1.0260118
000030 7f 1d a1 3f 72 3a 6b 3f f2 fc 86 3f 01 f2 84 3f
       1.2587126 0.91886055 1.0545943 1.0386354
000040 15 49 7b 3f 21 0f 91 3f 6f 2b 6b 3f 62 3a a2 3f
       0.9815839 1.1332742 0.9186315 1.2674067
000050 55 8f 77 3f 17 45 a1 3f f3 ca 80 3f 57 4a 74 3f
       0.9670308 1.259921 1.0061935 0.95425934
000060 98 3c 87 3f 8d ba 7a 3f f2 97 8e 3f 91 3c 80 3f
       1.0565367 0.97940904 1.114012 1.0018483
000070 89 67 80 3f 9c 67 83 3f af 01 b6 3f 0e a6 9c 3f
       1.0031596 1.0265994 1.4219264 1.2238176

Const_7 f4 [32]
000000 44 ad 8a 3e a6 45 7c 3e 9d 23 52 3d 36 98 b0 3c
       0.27085316 0.24635944 0.051303495 0.021556955
000010 bb 02 83 3e 95 43 8f 3c 71 b4 2a 3d b1 ed 2d 3d
       0.2558802 0.01748828 0.04167599 0.04246301
000020 ad d7 6f 3e 46 19 86 3e 3a ce eb 3c 31 34 52 3c
       0.23422118 0.26191157 0.02878486 0.012829826
000030 f3 b6 7e 3e 54 c8 94 bd 15 93 c3 3c 53 6e ac 3c
       0.24874477 -0.07264772 0.023873845 0.0210487
000040 7a d7 cd bc ca 49 95 3d a2 35 61 bd 8d e0 86 3e
       -0.025127161 0.07289465 -0.05498279 0.26343194
000050 2d a9 01 bd 5a 2a 82 3e 3c 22 f7 39 ea ae 16 bd
       -0.03165548 0.25422937 0.00047137018 -0.036787905
000060 e7 5a fa 3c 0d 5d d8 bc 4b 7a 95 3d ea d9 dd bb
       0.030560924 -0.026411558 0.07298716 -0.006770362
000070 5b b4 c9 3a ec 5f cf 3c ae 1d a4 3e 89 c8 73 3e
       0.0015388833 0.025314294 0.32053894 0.23806967

MatMul f4 [32, 1536]
000000 eb df 5c 3c f7 bc 84 3c 84 bd ff bb 0c 9a 20 bc
       0.013481121 0.016203387 -0.0078045744 -0.009802353
000010 0e 7c 9f bc 1b 0a 8f 3c fc c7 80 3c 52 af 6e bc
       -0.019468334 0.017460873 0.01572036 -0.014568167
000020 2f d0 39 3c a6 b8 31 3c 31 d3 64 bc b5 da 93 3c
       0.011341139 0.010847246 -0.013966368 0.018048624
000030 6b 13 3c bc aa f4 a8 bb 4e aa 1c 3b 82 1d ca 3b
       -0.011479239 -0.0051561194 0.002390522 0.0061680684
000040 5f c0 4c bc bb b8 ae 3c 8c 5f 4a bb 96 65 65 3c
       -0.012497037 0.02132832 -0.0030879704 0.014001271
000050 5a ca bc bb 97 91 4c bb bc 4e b2 3b 74 b3 f4 3b
       -0.005761427 -0.0031214708 0.005441515 0.0074676815
000060 7c 0b e5 bb 23 d5 b3 3b fb 92 3f bc 23 0a da 3c
       -0.0069898944 0.0054880544 -0.011692758 0.026616162
000070 f6 19 c8 bc b4 6f a4 bb 9e 76 55 3b a4 75 f1 bb
       -0.024426442 -0.005018199 0.0032571922 -0.00736876
000080 ce 45 f1 3b 1d a0 30 ba f2 44 12 bc 7e 0f 2f 3b
       0.0073630577 -0.0006737726 -0.008927571 0.0026712115
000090 0a f8 bb 3c 12 c0 04 3c 62 e8 94 3c ba b7 ab bc
       0.022945423 0.008102434 0.018177215 -0.020961631
0000a0 ae be 1b bc 97 0c c9 bb 86 a8 82 bc f3 c6 48 bb
       -0.009505911 -0.006135534 -0.015949499 -0.003063616
0000b0 4d d1 fb bc 12 8c 44 bb 9f 23 9a 3c 4a f6 8d 3b
       -0.03073945 -0.0029990715 0.018815814 0.0043323385
0000c0 0f e4 c0 3b b7 04 4f 3d 7e 7e b9 bb 67 b2 7c 3c
       0.0058865617 0.050541606 -0.005660831 0.015423394
0000d0 7b 85 f5 bb 9c b4 38 bc 88 06 68 bc bd 3f 3d bb
       -0.0074927188 -0.011273529 -0.014161713 -0.0028877102
0000e0 7f fd 38 bb 91 7a 98 3c 14 d9 42 bc e6 47 5f bb
       -0.0028227267 0.018613132 -0.011892576 -0.0034069954
0000f0 29 36 1c 3c a0 7a d7 3b 82 55 31 3c 86 db 84 bb
       0.009534397 0.0065758973 0.010823609 -0.0040544895
000100 35 61 10 3b 63 a5 9b 3c 34 41 b5 3c c5 ca b9 3c
       0.0022030596 0.018999761 0.022125818 0.022679696
000110 a4 2f 14 bc 53 c7 1c 3c ba 5b b7 bc 9e f8 b2 bb
       -0.009044562 0.009569007 -0.022382606 -0.0054617664
000120 1f ae c3 3a 5c d2 33 3c f8 38 c6 bc 74 b4 20 3c
       0.0014929211 0.010975447 -0.024197087 0.009808648
000130 6b 5e 9c 3c 9b 14 e8 3b 0f 35 d5 ba ec 2c de bb
       0.01908799 0.0070825345 -0.0016266423 -0.0067802574
000140 19 25 f0 bb 4f 6b b7 3c 4b 20 f8 3b 05 eb 09 bc
       -0.007328641 0.022390036 0.007572209 -0.008417849
000150 c1 e9 4b bb 55 fd c9 bc 70 ce 07 bd b1 fd 23 3c
       -0.003111467 -0.024656931 -0.03315586 0.010009215
000160 4d de b6 3c 2e 15 70 3c 0d db 0d 3d c4 b6 d1 bb
       0.022322798 0.014653487 0.03463273 -0.006399961
000170 59 0a d1 3b fd 6d ad bb b0 de 9e bc f5 c4 f9 ba
       0.0063794074 -0.0052926526 -0.019393295 -0.001905589
000180 6f 61 44 3b ba 77 f1 3b 16 34 66 3c 20 85 97 bc
       0.0029965302 0.007369009 0.014050504 -0.018496096
000190 91 0a 36 bc 2b 29 13 3c a7 d9 01 bc 33 ed 83 3c
       -0.011110918 0.008981983 -0.0079254275 0.016104316
0001a0 ba 08 10 bd 52 c1 65 bc 27 09 d1 bb 4f 81 43 3c
       -0.035164572 -0.014023142 -0.006379265 0.011932685
0001b0 ce b5 e5 3b 04 af 25 bc be 2a 54 3b 5c fd 94 3c
       0.007010198 -0.010112528 0.003237411 0.018187217
0001c0 6a d9 71 3c 47 f7 c8 3c e2 9b 0d bb 39 68 02 bd
       0.014761308 0.024531974 -0.0021607806 -0.031837676
0001d0 90 5f 7d 3c 76 0c 68 bc 00 cc 9a 3c d4 27 08 bc
       0.015464678 -0.014163127 0.018896103 -0.008310277
0001e0 1e 1e 94 3b 73 f7 a6 bc d6 b8 95 bc 65 17 e6 3c
       0.004520192 -0.020381665 -0.018276613 0.028087327
0001f0 fe 1d e6 bc aa 41 ba bc 05 c3 8f bb e3 77 55 bc
       -0.028090473 -0.02273639 -0.004387262 -0.0130290715
000200 5c f2 aa 3c 6f 3d aa b8 26 ae 60 bc 9d cb e4 3c
       0.02086752 -8.1176746e-05 -0.013713395 0.027929122
000210 32 9f bf 3b 1a b2 23 3c ea 8f 1a 3c 9a 82 f1 3b
       0.005847835 0.009991193 0.009433726 0.0073703052
000220 b0 ee 1d 3c bc d4 c0 3b df 69 83 ba 9e c6 54 bc
       0.009639427 0.005884735 -0.0010026059 -0.012986807
000230 86 6a b1 bc cf 98 03 bc 7f f2 78 3c 07 ff 94 3c
       -0.02165724 -0.008032038 0.015194534 0.018188013
000240 65 5a 03 3b 60 58 7c 3c 0b b5 54 3c 4f 1c cc 3c
       0.0020042893 0.01540193 0.012982617 0.024915842
000250 93 c6 bc ba 78 c8 55 3c a2 df 4f 3c e3 5d de b9
       -0.0014402441 0.013048284 0.012687596 -0.0004241309
000260 82 a5 6a 3b 61 0b 3f bc 0b 19 c3 bc 9c 34 10 3c
       0.0035804217 -0.011660428 -0.023815652 0.008801606
000270 2d 84 9f bb 18 3b b5 b9 ed 39 c2 3c f2 8c 36 bc
       -0.0048680515 -0.00034567039 0.023709262 -0.011142002
000280 8b 1d 90 3c 31 b8 7c 3a 96 4d f4 3c bc b7 3c 3c
       0.017592212 0.0009640484 0.029822152 0.011518415
000290 a4 6c 72 3c 9f 44 fc bb e1 b9 a4 bc 05 8b b3 bc
       0.01479641 -0.00769861 -0.020108165 -0.021916876
0002a0 56 03 af 3c 97 5a 83 bc c8 4f 58 bc 87 4d 8d bc
       0.021363895 -0.016034408 -0.013202615 -0.017248882
0002b0 d6 1d c1 3c e2 51 09 bc 85 f1 1c 39 67 0f f0 bb
       0.023573797 -0.008381339 0.00014967292 -0.007326055
0002c0 fa ce 4e bb fa d7 e2 bb 5a e8 82 b8 be de d0 3c
       -0.0031556473 -0.006922719 -6.242162e-05 0.025496837
0002d0 cd 01 c8 3c 4f f9 95 bc 09 0d 44 bb 31 13 0b bd
       0.024414921 -0.018307356 -0.0029914996 -0.03395385
0002e0 40 95 27 bc d8 d1 89 bb 2c 8a ed 3b b7 ae cc 3a
       -0.010228455 -0.0042059235 0.0072491374 0.0015616034
0002f0 00 2b aa 39 ec fe 46 3c 93 33 32 bc b5 26 1a 3c
       0.00032456964 0.012145739 -0.010876554 0.009408643
000300 6b 98 96 3b 67 ac f1 bb e3 52 99 bc ac 61 f3 bc
       0.0045958064 -0.0073752883 -0.018716281 -0.02970966
000310 7f 4c 3f 3b aa 95 06 bc f0 12 58 3b 9a 05 c5 bc
       0.0029189882 -0.008214394 0.0032970272 -0.024050523
000320 fb 6b 93 bc 4f ca 32 3b d6 75 75 3c 0f 5d 49 3c
       -0.017995825 0.002728123 0.014981708 0.012290253
000330 5e 56 9d bc 98 f2 b4 bc d2 9c b5 bc f4 3e 84 3c
       -0.019206222 -0.022088334 -0.022169504 0.0161433
000340 43 43 4c bc 2e 43 94 bc e7 c2 5e 3b 48 bd d8 bb
       -0.012467208 -0.01809844 0.0033990683 -0.006614361
000350 33 a3 c4 bb 5c 9d 37 3c 22 4b 29 bb cf 68 13 ba
       -0.0060009 0.011206951 -0.0025832136 -0.00056232227
000360 ce c8 ef bb dd 47 85 bc 2a 63 84 bc 96 57 84 3b
       -0.007317639 -0.016269619 -0.016160566 0.0040387614
000370 1b f6 11 3b 0e 32 38 3c 1e 81 4c bc 15 83 89 bc
       0.0022271934 0.011242403 -0.012481956 -0.016786138
000380 94 20 10 bb b4 7a ee 3a 2a ab e7 bc 4c 95 97 3c
       -0.0021992074 0.0018194527 -0.02827986 0.018503807
000390 1f f6 3c bc 11 53 3d 3c b6 2f b0 3c e2 7d 98 3c
       -0.011533289 0.011555449 0.021507125 0.018614713
0003a0 bc 39 87 3c c2 1a 75 bc 4b fe c0 bc 13 b4 2a 3c
       0.016507022 -0.014959993 -0.023558756 0.01041891
0003b0 00 c9 cf bc 72 24 e1 3c 9b c1 f0 bc 50 32 40 bc
       -0.025364399 0.027483199 -0.029389193 -0.011730745
0003c0 5c 62 bf bc aa d8 ad 3b 3d 2f 5e 3c 16 80 95 bc
       -0.023362331 0.0053053694 0.013561067 -0.018249553
0003d0 f7 c3 82 3c 4a a7 41 3d fa 2a c2 3c 1e 9c 50 3c
       0.015962584 0.04727868 0.023702133 0.012732534
0003e0 c0 4f 9c 3c 75 ce d6 bb 23 e0 08 ba f0 d1 98 bc
       0.019080997 -0.0065553733 -0.0005221387 -0.018654794
0003f0 a4 80 28 3c fc c6 f7 bc df 12 38 bc 73 43 ab b9
       0.010284577 -0.03024625 -0.011234968 -0.00032665915

MatMul_1 f4 [32, 32]
000000 be 71 df bc d1 3f b6 bb ed 11 e7 3c 35 f3 a6 bd
       -0.027275916 -0.0055618067 0.02820679 -0.08151857
000010 3c 92 e1 bd ff 00 66 b9 65 50 e5 bd d4 b3 71 bc
       -0.1101422 -0.0002193488 -0.11196975 -0.014752347
000020 57 80 d7 bb b6 ea d2 3d d5 83 2b 3d 9d 72 3e 3d
       -0.0065765786 0.10298674 0.04187377 0.046496022
000030 2e 63 80 3c 4a 42 1e 3e 57 a1 2b be e8 66 95 bd
       0.015672293 0.15454975 -0.16760765 -0.072950184
000040 f9 8f 24 be 84 f3 df bd 2d db 75 3b 47 fe 1c be
       -0.16070546 -0.10935119 0.0037514672 -0.15331374
000050 bb 89 fa bd 4f 54 9b bc 07 14 83 bc 44 90 e3 3d
       -0.12233301 -0.0189611 -0.01600076 0.11111501
000060 df a1 08 3e 9f 5f 65 bd b2 4d 63 bd 95 ca 4a bc
       0.13342999 -0.055999395 -0.055494018 -0.012377401
000070 e2 2f 38 3e 97 72 d3 bd 05 9d 19 3d 72 7e e9 3d
       0.17987016 -0.10324591 0.03750326 0.11401071
000080 7e ed 1f bd 7c a4 11 3e d9 71 bb 3d c4 4a 94 bd
       -0.03904485 0.14222902 0.09152574 -0.07240823
000090 d9 1f 74 bd a3 7c 3d be f3 ba f2 bd 64 60 4a bc
       -0.059600685 -0.18504576 -0.11852064 -0.012352083
0000a0 be 5b cf 3d 9a 54 16 3d ce 7d 37 bd 9d 09 bf 3d
       0.1012492 0.036701776 -0.04479771 0.093280055
0000b0 a8 c9 99 3c 1c 10 1d be f6 91 ea b8 7c 7b a0 ba
       0.018772915 -0.15338176 -0.00011185177 -0.0012243832
0000c0 82 bc f3 3d a2 80 73 bd 47 59 2e be 0c f6 cc bd
       0.119011894 -0.059448846 -0.17026244 -0.10007867
0000d0 ea 8f 45 3d a5 2d 01 3e 2e 1c cf 3d dc 8c 90 3c
       0.04823295 0.12615068 0.10112797 0.017645292
0000e0 6d aa 00 3e 51 81 cc bc 83 72 fa bb 4c 92 f8 bd
       0.12565012 -0.024964007 -0.0076430454 -0.12137279
0000f0 1b ba a4 3d b3 e7 23 be 07 cd 8a bd b9 1d d4 3c
       0.08043309 -0.16006355 -0.06777387 0.02589308
000100 3d 0d 08 3e 77 4a 12 3e fd a6 12 3e 3b 32 71 3d
       0.132863 0.14286219 0.14321513 0.058885794
000110 c5 59 66 3d 21 02 33 3e 9a c3 00 be bd 42 ec 3d
       0.056237955 0.17481281 -0.12574616 0.11536167
000120 89 19 44 be b1 3c 32 3d ec e7 a8 bd f7 bf a0 bd
       -0.19150366 0.04351491 -0.082473606 -0.078491144
000130 d5 d6 b9 bd c4 ad d0 3d ee 08 ee 3d 99 f3 9a bd
       -0.09074179 0.10189393 0.11622797 -0.07565994
000140 35 26 15 be 05 ed 1b be a0 67 5b 3e 7f 3a 16 3e
       -0.14565356 -0.15227135 0.21426249 0.14670752
000150 cc 5b 88 bd 80 31 14 be 5d 29 91 bc ed bc cc bd
       -0.06658134 -0.14472008 -0.017719919 -0.09996972
000160 6b eb c2 3d 90 54 ee 3d f1 13 ce bd 70 33 7c bd
       0.09517559 0.11637223 -0.10062397 -0.061572492
000170 14 58 6c 3d 9e 6a 16 3e 93 84 bb bd 27 89 31 3d
       0.057701185 0.14689109 -0.09156146 0.04334369
000180 a8 20 47 bd 59 2f 20 bc e2 80 29 3e 52 f4 60 3d
       -0.048615128 -0.009776914 0.16553071 0.054920502
000190 65 ff c2 bd 8d e4 21 bd 83 eb 86 bd e6 77 29 3d
       -0.09521369 -0.039524604 -0.06587889 0.04137411
0001a0 b6 f2 bf bc 09 ea 32 bd 2b ac f7 bd 9c 5f 19 3e
       -0.023431163 -0.043680225 -0.12093385 0.14977878
0001b0 80 e4 c4 3d 67 e1 8e bd 9b dd 34 bd 9c 14 0a 3e
       0.096138954 -0.06976586 -0.044156652 0.13484424
0001c0 31 7a ea bd b7 ba 23 be 57 20 5e 3e c4 46 a5 bd
       -0.114490874 -0.15989195 0.21692024 -0.08070138
0001d0 bb 02 11 be 4f f8 fd bc 33 0d 83 3d d4 bb 21 bc
       -0.14161198 -0.031002192 0.06399002 -0.009871442
0001e0 d5 9a a0 3d f7 24 0c bd ed 1b d5 bb 6e d9 3d 3d
       0.07842032 -0.03421494 -0.006503573 0.046349935
0001f0 b8 47 3e be 93 d5 07 be b6 ad b7 3d 4d c5 4b 3e
       -0.18582046 -0.13265066 0.089686796 0.19899483
000200 4a 8c d7 3d b5 81 1a 3e cd ae f4 3d 29 a6 e8 3d
       0.10524805 0.15088542 0.11947403 0.113598175
000210 4e dd 1c 3e 1d b5 2d 3c 11 bb 23 be 7c 9a 7e 3c
       0.15318796 0.010602263 -0.15989329 0.015539762
000220 3f a3 d8 bd be f8 88 bd a1 00 e8 3d ca 49 1c 3e
       -0.10578012 -0.06688069 0.11328245 0.15262523
000230 a2 b5 11 3e d2 3f 82 bd 6c 1e eb 3d 9b 16 34 be
       0.14229444 -0.06359829 0.11480412 -0.17586748
000240 3e 38 bf 3c 74 50 98 bd 9b 5c 0f be 32 6b ce bd
       0.023342248 -0.0743722 -0.1400017 -0.1007904
000250 8d 23 37 bd eb a3 b7 3b 09 97 bf bd 68 25 0e be
       -0.04471164 0.0056042573 -0.093549795 -0.13881457
000260 0d d4 06 3e 87 9a 4a 3d 17 5c 1d be ac d9 32 3d
       0.13166828 0.049463775 -0.1536716 0.04366462
000270 33 a4 f8 bd 8e 45 23 3e 8d f8 06 3e 27 76 0c be
       -0.121406935 0.15944502 0.13180752 -0.13716947
000280 5f eb 27 bd c7 8b 2f 3d f0 54 b5 bc a9 50 01 3d
       -0.04099595 0.04285791 -0.022135228 0.031571064
000290 d5 3a 16 be fb c4 fb 3c 97 3d 00 3e 47 f1 f5 bd
       -0.1467088 0.030733576 0.12523495 -0.120089106
0002a0 4f be ba bd 67 b6 de 3d 39 95 73 3d c4 89 ef 3d
       -0.0911833 0.10874634 0.05946848 0.116961986
0002b0 66 76 05 be 48 3c e8 3b f4 b7 81 3c f8 4e 94 3d
       -0.13033447 0.007087264 0.015834786 0.072416246
0002c0 09 0c 1c 3e b0 4b a1 bd 4b 0b 43 3e 51 a4 1b 3e
       0.15238966 -0.07875764 0.19047277 0.151994
0002d0 62 0f ed bd 9b 15 a1 bd 76 a2 f7 3d 75 11 29 3d
       -0.115752 -0.07865449 0.12091534 0.041276414
0002e0 df b4 a9 bd 2a 25 c4 bd ae 36 37 3e 6b db df bd
       -0.082864515 -0.09577401 0.17891952 -0.109305225
0002f0 bf 6d 38 bd e2 61 95 3d c1 43 1f bd 52 2f 3a 3d
       -0.045026537 0.0729406 -0.038882975 0.045455284
000300 c7 59 04 3e f2 1d fe 3d b4 62 ac bd 7b e5 30 3d
       0.12924872 0.12408055 -0.084172636 0.0431876
000310 7d a2 16 be 75 14 bb 3d 60 d2 0a 3e a8 1b d1 bd
       -0.14710422 0.09134761 0.13556814 -0.10210353
000320 46 72 b5 3c 70 6b e9 3d 90 15 00 3c 27 92 09 bd
       0.022149216 0.11397445 0.007817641 -0.033586647
000330 a3 8d b4 bc 3f 68 2c 3d 1e 9a c8 bd a8 b9 05 be
       -0.022040194 0.042091604 -0.097950205 -0.13059103
000340 c8 9a 26 bd ae 74 da bd dc 9e 43 3e e3 32 26 3d
       -0.040674955 -0.10666786 0.19103569 0.040575873
000350 91 1a 51 bd 95 2b a2 3c d1 3c 95 3d 10 84 a4 bc
       -0.051050726 0.019796172 0.072869904 -0.020082504
000360 47 16 db bd 39 b8 1d bd a7 4a 07 3e eb 29 0b 3d
       -0.106976084 -0.038505767 0.13212071 0.033975523
000370 97 0e f3 bd 11 68 45 3d 3a 20 c3 3d 20 b6 25 3e
       -0.11868017 0.04819495 0.09527631 0.16182756
000380 d9 1b c7 bd 67 eb ac 3c 91 3f 4b 3c 5a 19 8f 3d
       -0.097221084 0.021108342 0.012405292 0.06987257
000390 3e 92 a4 bd 61 9a 4a 3e 03 c7 59 3e 70 1e d7 3b
       -0.08035706 0.19785453 0.21267323 0.0065649077
0003a0 41 cb ba bc b5 1c 77 bd 83 41 f7 3d d0 a4 0a be
       -0.022801997 -0.06033011 0.12073042 -0.13539433
0003b0 44 4f db 3d 92 39 f7 3c 0b 44 00 3e e7 af ac bb
       0.10708478 0.030178819 0.12525956 -0.0052699926
0003c0 d0 16 66 bc 8b e9 e7 3d c8 a7 45 3e 5e 67 21 bd
       -0.014043525 0.11323842 0.19302285 -0.03940522
0003d0 41 c5 a0 bd 38 f6 17 be 8c ca 3b 3c fc af cb bd
       -0.07850123 -0.14840019 0.011461865 -0.09945676
0003e0 0e 08 d3 bd 85 92 18 3e 26 6b 60 3d 55 f5 b8 bb
       -0.10304271 0.14899643 0.054789685 -0.00564448
0003f0 d3 f9 91 3d 1f 28 34 be 10 83 39 be 98 94 d5 3d
       0.07127728 -0.1759343 -0.18116403 0.10428733

MatMul_2 f4 [1, 32]
000000 50 65 a6 be ab 16 a2 be 8c 73 71 3e 3f ed 99 3d
       -0.3249917 -0.3165792 0.23579234 0.07515954
000010 20 73 a8 be 6b 45 d9 3d 82 5d 0f 3e 07 81 1f 3e
       -0.32900333 0.106089436 0.14000514 0.15576564
000020 e0 0f af be 3c d9 ab be ac f6 4a 3e 99 5f cc 3d
       -0.341918 -0.33564174 0.1982066 0.09979171
000030 8e d1 b0 be 05 06 66 bc 71 ce 1f 3d 2e 7b 2c 3e
       -0.34534878 -0.014039521 0.039015237 0.16843864
000040 d6 9e b5 bc 89 c0 21 3e c4 2e 95 ba 24 0f 95 be
       -0.022170465 0.15796103 -0.0011381735 -0.29113114
000050 9b 87 45 3c 7b 31 a6 be a3 4e 98 3d a1 4f f4 bc
       0.012056257 -0.32459626 0.07436874 -0.029823126
000060 2c 4e 75 3d c7 d2 91 3d e3 ee e2 3d 06 f7 ec 3c
       0.059889004 0.07120281 0.1108072 0.028926384
000070 f5 5f 75 3d 09 7c 0d 3d fc 6d b3 be 7f 5b b0 be
       0.059905965 0.034542117 -0.3504485 -0.34444806
