nindza2.tflite (tflite, 206748 bytes, 9 tensors)

Const_1 f4 [32]
00000000: b6f9 e23c 7d19 70bb b92c bc3b 8ef1 6a3c
00000010: febe 173c 8ac8 bf3c dc8c f13c c7e8 27bc
00000020: 8cdd 373c b56e 903c 5f82 aabb dbba 333c
00000030: d996 c5bc 99ad 09bc baf1 b03c 00cd 30bc
00000040: 5610 4c3a ca48 aaba fcf7 893a 7053 a0bc
00000050: 9b5b bc3c e062 093c a4b0 af3c d6fa 84bc
00000060: 7b41 89bc cfc2 6dbc fae3 7bbb cb74 c339
00000070: 457e 823c 6029 2ebc 0136 60bc c4ba 19bc
0.027706962 -0.0036636286 0.005742636 0.014339818 0.009261845 0.023411054 0.029486112 -0.01024837
0.0112222545 0.017630914 -0.0052035297 0.010969843 -0.024119781 -0.008403205 0.02159964 -0.010791063
0.00077844167 -0.0012991664 0.0010526176 -0.019571036 0.0229929 0.00838539 0.021446534 -0.01623289
-0.016754856 -0.014511778 -0.0038435445 0.00037280316 0.01592935 -0.010629982 -0.013684751 -0.009382907

Const_2 f4 [32]
00000000: b7e7 7a3f 10f8 843f 9dcc 7c3f f264 823f
00000010: 17a8 803f e987 803f 244a 783f 3716 813f
00000020: 98cb 793f 8d24 763f 440a 803f 2a19 843f
00000030: 8332 823f 6942 7e3f 2c41 7a3f f243 823f
00000040: e80b 783f d304 813f 4f03 863f 5c9b 7c3f
00000050: 8a9e 783f 5979 793f a396 833f 1d22 793f
00000060: b68e 7c3f 1e0f 7f3f 049d 803f da6b 783f
00000070: a5af 7f3f 5934 7f3f c398 833f 7e86 7c3f
0.9800982 1.0388203 0.98749715 1.0187056 1.0051297 1.0041476 0.9698813 1.0084904
0.97576284 0.9614952 1.0003133 1.032018 1.0171665 0.99320084 0.97755694 1.0176985
0.9689317 1.0079597 1.046976 0.9867456 0.9711691 0.97450787 1.0280346 0.9731768
0.9865526 0.9963244 1.0047917 0.9703957 0.9987739 0.9968925 1.0280994 0.9864272

Const_3 f4 [32]
00000000: 7454 253c fced 86bc 56a9 a2bc 2b33 85bc
00000010: b741 5f3b e2e3 7ebc f7e4 62bb 2e0d c0bc
00000020: 97e8 983c 601f 863c 69a9 303c b82b b43b
00000030: 7779 e13b 7309 dfbc 82ef cbbc 12d6 6abc
00000040: f5b1 21bd ef84 103c 96af 8d3b f0fa a2bc
00000050: a3cd 663b f066 b7bc eac9 83bc 5e02 b6bc
00000060: b7a1 b7bc 22a1 acbc 069b 11bc 3783 c1bc
00000070: 347c bcbb dbc4 99bc 8eed 1a3c 2aae c6bc
0.010090936 -0.016470902 -0.019856136 -0.01625975 0.0034066269 -0.015557261 -0.0034621337 -0.023443785
0.018665595 0.016372383 0.010782578 0.0054983757 0.006880935 -0.027226185 -0.02489448 -0.014333265
-0.039476354 0.008820756 0.00432391 -0.019895047 0.0035217784 -0.022387952 -0.016087491 -0.022217926
-0.022415979 -0.021072928 -0.008887058 -0.023622138 -0.005752111 -0.018770626 0.0094560515 -0.02425297

Const_5 f4 [32]
00000000: f9f2 5d3d 0eb7 08be 5e3e 2bbd 8a1b b23d
00000010: 2da1 aebd 6efa 8b3d 5853 f3bd 6af2 2e3e
00000020: 980d 59bd b891 7e3d f821 1b3e 8d64 aa3a
00000030: 925d 21bd 2bcc dc3b ba62 acbd 22b2 e73d
00000040: ee21 d83d 6bda 00bd d574 383d 56a7 16be
00000050: cc98 b43d e7a5 01be d239 ed3d 56ff 353d
00000060: 5fe5 b6bd f8f4 29be 3185 703d 4202 b0bd
00000070: 5339 493d 0f22 0dbe 47b2 943c d6e1 b2bd
0.054186795 -0.1335108 -0.041807525 0.08696659 -0.085268356 0.06834875 -0.11881131 0.17084661
-0.05299148 0.062150687 0.15149677 0.0012999937 -0.039395876 0.006738206 -0.08417268 0.11313273
0.105533466 -0.0314583 0.045033295 -0.14712271 0.08818206 -0.12660943 0.11583294 0.04443296
-0.08930468 -0.16597354 0.05872077 -0.08594181 0.049126934 -0.13782524 0.018151416 -0.08734481

Const_6 f4 [32]
00000000: ae8e 9c3f f5a5 b43f 349d a93f 7cf5 a93f
00000010: d9f7 943f 67d2 843f a47b 853f e3ce a23f
00000020: 71b9 8f3f e4cb b23f a3f1 803f a629 823f
00000030: fd24 9c3f a0a9 893f 690b 873f 3229 7e3f
00000040: efc1 9d3f d504 823f 4990 843f 7686 833f
00000050: e8f7 793f 1494 813f 3b26 8d3f b27d ab3f
00000060: 22c9 893f 188f 7c3f 07ce 7f3f e226 843f
00000070: 5486 813f a03c 813f ee26 863f 6dfa 6b3f
1.2231042 1.4113146 1.32511 1.3278041 1.1638137 1.037671 1.0428357 1.2719387
1.1228467 1.3968472 1.0073742 1.016896 1.2198788 1.075489 1.0550357 0.9928161
1.2324809 1.0157725 1.0356532 1.0275409 0.976439 1.0123315 1.1027292 1.3397734
1.0764506 0.98655844 0.9992375 1.0324366 1.0119119 1.0096626 1.048063 0.92178994

Const_7 f4 [32]
00000000: c5d5 7b3e 0d08 a83e 6cbe 933e 8735 963e
00000010: d1f8 d83d adc4 063d c259 243d 5e17 8c3e
00000020: 7a4f 7e3d 19a5 a43e c451 a93c f9fd 8a3c
00000030: 16a2 7a3e 1e97 393d ec6c da3c 6f25 c2bc
00000040: b5c7 823e a819 b43b bc8b 6b3c 6618 5e3c
00000050: 362b dbbb a7a4 2bbb 667d bc3d d914 993e
00000060: 4bd6 833d d4e3 e9bc 32c3 8abc e49b 963c
00000070: f212 ab3b 012a ed3b 56b8 eb3c dc6e b4bd
0.24593265 0.32818642 0.28856218 0.29337713 0.10594333 0.03290241 0.040124662 0.27361578
0.062087514 0.3215721 0.020668872 0.016966807 0.24475893 0.045310132 0.026663266 -0.02369949
0.2554299 0.0054962225 0.014376577 0.013555622 -0.0066885008 -0.002619067 0.09203605 0.29898718
0.064373575 -0.02855102 -0.01693878 0.018384881 0.0052207643 0.0072376733 0.028774422 -0.08810207

MatMul f4 [32, 1536]
00000000: c98b 7abc e41a 743b 30c7 953c 9c18 f23b
00000010: 64cc 073c b481 b9bc fd08 883c 2ba9 b6bc
00000020: a14d 013d 56f9 b43b 900f 42bc e283 cbbc
00000030: 5c0a 14bc 9755 c0bb eb4f 95bb 1a21 35bb
00000040: 56e4 1d3d 786a 473c 3f97 773c 5f68 11bc
00000050: 0aa4 94bb 0a25 98bc aff8 7abc 548f d8bb
00000060: ae74 bdbc c45e 023c c7c6 03bc 218d 3a3c
00000070: 910c f93b 0e7f 813c 0ad0 e5bb 3c1f 9f3c
00000080: 8f67 acbc ce2c 03bc 9efc 19bb d485 a8bb
00000090: d0e1 70bc 879f c53c 7280 61bc 4abc 9f3c
000000a0: cb93 03bc be93 01bd dfa1 9ebc d773 afbc
000000b0: d62b 32bb 98d6 193b ac4f 573c 9df9 a73c
000000c0: 8599 963c 9a44 debc 8c9a 1abb 6a4d a9bb
000000d0: 1635 793c 942d aabc 8a4d 14bc ce06 303c
000000e0: 02b6 e23b d660 a6bb 7fa9 273b d9a1 4d3c
000000f0: 2f3b 04bb f472 44bb cf5c 85bc cc6a b23c
00000100: 4d73 20ba 800d 21bb 0797 9a3b c2cc bebc
00000110: f4df 473c 33fd 58bc 5150 723c a1e8 4c3c
00000120: 47ce e7ba b3d9 b2bc 867e 833b b8f4 a4bc
00000130: d776 d1bc 2845 a33a 383d f83c 8ffe 86bc
00000140: b9f0 11ba 4331 3c3c 088d 0cbc af58 a3bc
00000150: b97e eebb 6e56 943b a140 f13c 5897 b43c
00000160: 3e4e 763b 1c51 3ebc c9cf b23c 72a0 e6bb
00000170: 0a08 82bc fabf b8ba 27e9 2b3b 679d 5dbc
00000180: 738c f53c 3125 aabb fc30 7d3b 16b6 46ba
00000190: 0c38 29bc 9180 0dbb 7223 8bbc 7dd0 80bc
000001a0: 4fb1 403c 8dfb 7d3a d1db bcbc 08d8 ae3b
000001b0: 4c59 59bc cf7c 193c 21d9 a0bc f342 b7bc
000001c0: 3598 183c 06cc fdbb 26fa cd3c 871d 8dbc
000001d0: 50dc be3c 03bb fa3b f774 b13b 00a1 9f3b
000001e0: 020a 57bc 3abd b63b 08b7 243c 8bdd 313b
000001f0: 5541 a53c 29f9 4cbc feb1 293c 791b d53b
00000200: 1c27 213c 5d25 e73b 5693 933b 1edc e53b
00000210: d41e af3c 0313 b63a ee8d 51bc 6c9d 803c
00000220: 1137 243c ccde f5ba 9c86 55bc 2b66 033c
00000230: f2e9 e23c e6da 1abc 3f24 283c f749 d7bc
00000240: ca6d ecbb c5a4 3dbc ea4d 8dbc 7e77 6f3c
00000250: 9e95 52bc 742d 583b 4a98 f7bb d647 713c
00000260: 480c a43b d26b 933b fcc6 1d3c 4228 a73c
00000270: ed60 713b 487e de38 925b 433c 15a3 8d3c
00000280: 63b4 7f3c ec4b 13bc 026c a2bb 6d92 e03b
00000290: 5f86 f63b c13e ed3c 671e 64bb c899 7c3b
000002a0: 1846 01bd f381 3e3c 7cb7 4bbc 70c4 e3bc
000002b0: a3ba 973c 39bb 103c c56e b5bc be54 523b
000002c0: 9339 c33b 2221 15bc 1945 1f3c fba4 d5bb
000002d0: dc9a ad3c 6986 2fbc e078 d23b fdd8 2d3c
000002e0: 9234 363c 5cb6 9dbc 0e5f b0bb cb41 903b
000002f0: b608 c5bc 4358 7a3c 582f 91b9 f0fc 3b3b
00000300: 02f5 b0bb 79f8 19bc 44a4 cdbc a3d3 1abc
00000310: 0d2c 56bc 9abd 3ebc 31b9 05bc 5951 55bc
00000320: 886a 553b 7fc0 a43c b7bb 04bc d589 c63c
00000330: c665 983c 2753 fbbb 6f3b a53b 15fe 113c
00000340: d3bc c3bb 5c2f 06bd 61dc abbc acff 6dbc
00000350: 50a1 27bc 0440 ad3c 8846 813c 80f9 4c3c
00000360: 7c71 8bbc 804a a4bb 66d9 813c 059b 76bc
00000370: 55e7 b83c 0df7 d23b 15ab ccb8 09c5 9b3c
00000380: d782 36bb 1adc ddbc 3c3a 90ba f5f0 0fbb
00000390: 17f0 373c e62c 1cbc 4dc8 24bd c73a b8bb
000003a0: bce9 963c 244d 283b 10ca 8ebb cbe7 d03b
000003b0: 6814 963b 21e9 babb 90d7 813c 8e9f 2c3c
000003c0: e630 62bc 68a3 0abd 1502 263c 1259 133c
000003d0: 250b c3bb 74ab 72bc 125a 9d3c 6668 52bc
000003e0: efe1 d4bb 84eb e23c c799 4f3c 1058 e23b
000003f0: 7c5e 473b c5cd 8d3c 0c6c 453a 2722 193c
-0.015292116 0.0037247473 0.018283457 0.0073881876 0.008288477 -0.022644855 0.016605848 -0.022297462
0.031568173 0.005522887 -0.011844531 -0.02484316 -0.009035673 -0.005869578 -0.004556646 -0.0027638138
0.038547836 0.01217138 0.0151117435 -0.008874982 -0.0045361565 -0.01857235 -0.01531808 -0.006608883
-0.023126926 0.007957164 -0.008042998 0.011386187 0.007600375 0.015807655 -0.0070133256 0.019424073
-0.021045474 -0.008006288 -0.002349652 -0.0051429067 -0.014702275 0.02412392 -0.013763534 0.019498963
-0.008030842 -0.03163504 -0.019364296 -0.021417541 -0.0027186773 0.0023473855 0.013141554 0.020504767
0.01838375 -0.027132321 -0.0023590652 -0.005166699 0.015210411 -0.020773686 -0.00905169 0.01074381
0.0069186697 -0.0050774617 0.0025583205 0.0125507945 -0.0020176878 -0.0029975744 -0.016279606 0.02177944
-0.0006120697 -0.0024574697 0.004717711 -0.023290996 0.012199391 -0.013243961 0.014789657 0.012506635
-0.0017685377 -0.021832323 0.0040128855 -0.020136222 -0.025569363 0.0012456523 0.030302629 -0.016478805
-0.00055671815 0.011486354 -0.008578546 -0.019939749 -0.00727829 0.004526905 0.029449763 0.022044823
0.0037583257 -0.011616018 0.021827595 -0.0070381695 -0.015872974 -0.0014095299 0.00262315 -0.013526297
0.029974198 -0.005192422 0.0038633933 -0.00075802335 -0.010328304 -0.0021591524 -0.016984675 -0.015724415
0.011761024 0.0009688668 -0.023054035 0.0053358115 -0.013265919 0.009368136 -0.019634785 -0.022370791
0.009313633 -0.0077452688 0.025143694 -0.017225994 0.023298413 0.007651688 0.0054155546 0.0048714876
-0.013124945 0.005576757 0.010053404 0.0027140107 0.020172754 -0.012510576 0.010357378 0.006503519
0.009835985 0.0070540146 0.004503648 0.0070147654 0.021377005 0.0013891164 -0.012790186 0.015700065
0.0100228945 -0.0018758415 -0.013032582 0.008019964 0.027699444 -0.0094516035 0.010262548 -0.026280386
-0.0072152363 -0.011574929 -0.017249066 0.0146158915 -0.012853054 0.0032986077 -0.007555996 0.0147266
0.005006347 0.004498937 0.009629961 0.020404939 0.0036831454 0.000106093066 0.0119236875 0.017289678
0.015606972 -0.008990269 -0.004956723 0.006853393 0.0075233425 0.028960587 -0.003480816 0.003854381
-0.031560987 0.011627662 -0.012433883 -0.02780363 0.018521613 0.0088337 -0.022147546 0.0032093967
0.005957791 -0.009102138 0.009721064 -0.0065199113 0.021192007 -0.010713198 0.006423101 0.010610816
0.011120932 -0.019251995 -0.005382425 0.0044023744 -0.024052005 0.015279832 -0.0002769183 0.0028684698
-0.005400301 -0.009397619 -0.025102742 -0.009449872 -0.013072026 -0.011641884 -0.008161829 -0.013019883
0.0032564718 0.02011132 -0.008101395 0.024235645 0.018603217 -0.0076698246 0.0050424854 0.0089106755
-0.0059734373 -0.03276001 -0.020979108 -0.014526289 -0.010231331 0.02114869 0.015780702 0.012510657
-0.017021887 -0.005013764 0.015850734 -0.015051608 0.022571245 0.006438142 -9.7593445e-05 0.019014852
-0.0027848983 -0.027082492 -0.0011003683 -0.002196369 0.0112266755 -0.009532189 -0.040230084 -0.005622241
0.018422 0.0025680745 -0.004357584 0.006375288 0.0045800693 -0.0057040607 0.015849859 0.010536088
-0.013805604 -0.033847243 0.010132332 0.008993404 -0.0059522563 -0.014811385 0.019207988 -0.012842273
-0.00649666 0.027700193 0.012670941 0.0069074705 0.0030421307 0.017310033 0.0007531054 0.009346521

MatMul_1 f4 [32, 32]
00000000: cf62 e03c f332 493d c93e 5b3c 3a0c 25bb
00000010: 1a52 553d 9762 b8bb c805 163e 05fd e63d
00000020: 7126 36be ce0e 96bc 20d1 e93d 6cc8 9fbd
00000030: c40d 813c 6f45 08be 7d10 94bd 8771 20be
00000040: c650 b83d ab11 a93c e9e6 ec3d 8336 88bc
00000050: 0dc3 be3d f401 d7bd f378 9bbc 6bdf f4bd
00000060: 583b a2bc 2fa6 ebbc 8e93 d43d cefd cebd
00000070: dbb5 ebbd 9666 2cbe 3c23 84bd 1887 0c3e
00000080: 68b5 9f3d 1111 9dbd 5024 14be 622b 7ebd
00000090: b7df a63c 1f36 3abc 05c3 0d3e 5cb6 cc3c
000000a0: d00c a23d f318 0a3e 1ee1 e63d 9895 233d
000000b0: e03b 56be 3fc5 dfba e4a4 913c 2e1f 53be
000000c0: 6621 39be 6bd7 b63c 1255 aebc 160e acbd
000000d0: fc01 df3d 4908 193e b223 44bb f631 be3c
000000e0: 9149 01be fb1c 16bc 04e0 4c3d e984 293e
000000f0: 4fce 8fbd f868 83bd c85d b83c 062e 0e3e
00000100: 6462 bcbd 5c02 2cbe 2e7d 72bc 743a bbbd
00000110: f999 ef3d 0076 38be 5090 483e 4507 b83c
00000120: 008e 873d a716 12bd 7d07 6cbd 2ac0 66be
00000130: 0f6a c33d 9004 17bd 461c 113d 15c8 b3bd
00000140: 55b3 1d3e b69a 203e 24a1 fc3c c3f5 783d
00000150: 2cd5 183e 0f3b a9bc e8a1 063d e1bc a83d
00000160: ef68 fbbd 6bef 683c 0a69 2dbb 3538 1a3e
00000170: 34c0 073e d012 b33d abd6 b43c 1a59 a43d
00000180: 60ef 573d 2740 363d b4bb 37bd 1f9b 2fbe
00000190: 8ef2 b73d 239e eb3d 7625 aabd 7869 ee3d
000001a0: 0549 3e3e 70c3 62bd e8d8 eabb d34f 0ebe
000001b0: 55d6 29be 05a4 c93d 8d43 1d3e f7ca ce3d
000001c0: aa2c 1f3d 7b9b 813d b537 153e caad c63d
000001d0: c8c3 29bd 4c5b 3dbe 63b9 62be 212f ed3d
000001e0: 0bba a9bd 1b46 013d e5cc 043d 39ca e13c
000001f0: 45f7 233c 48a5 2ebe b4d2 02bd 543a 0dbe
00000200: 4c62 06be 2478 913d 2945 e93c abaf 93bd
00000210: a81b bcbd 48be 463e f741 b8bc c0a9 d83d
00000220: e0f4 c5bd 2fa3 be3b 85f3 003e 41b3 af3d
00000230: e787 9dba 8116 5ebc 77a3 bdbd 96ee 393e
00000240: 15fc e1bd cbcb 4c3e 87b6 53be fd68 89bc
00000250: 22ff ba3c 2387 4abd 6b39 8b3d a0e5 cbbd
00000260: e095 af3d 4142 d03d 67c6 253d 8c26 d83d
00000270: 3f27 3a3e aaa7 20bd 30e4 f33d d921 9abd
00000280: 9775 d43a f110 e8bb 7d6e 123d 6558 183e
00000290: 1abe cd3c e6e3 aa3d 2d37 123e 5cb3 d7bd
000002a0: cf4d 503d a94e 453d e20f c43a 41de 973d
000002b0: 13e9 3f3e f490 8bbd e1aa 293e 4749 153e
000002c0: f291 163e 64e3 bebd 7040 49be 12bb 46bc
000002d0: 3de3 17bd 5f14 913c 7f05 993d 0252 09bd
000002e0: 5bc6 18be 0b0a d43d a938 ad3d 775d a7bc
000002f0: be93 243e 30cc c03d be93 1c3e 93d4 01bd
00000300: 2508 9d3d 341c 57bd 2ced b3bb 1bf0 273e
00000310: 36c1 9c3c cfd3 e43d 0471 0ebd 59bc 3e3e
00000320: b867 ad3d 0c5a a43c 5de2 a7bc 575b 243e
00000330: 7e4e 243e 3167 943d 050d 5c3d 03bf 033e
00000340: 18a2 e8bc 8e39 03be 5fc5 45bc 3f88 063d
00000350: cba1 3ebd f292 85bd 066e 173e 2bbd d33d
00000360: 6d27 db3d 6d36 d33d 53df 8a3d 792f 78bd
00000370: 86c2 c4bd bd1a 22be 6ebf 0a3e 3dcc 4f3d
00000380: 455e 0a3e 7b4a ffbd 55ef 113d 8a3b afbd
00000390: 2451 28bd c051 f8bd 5d04 0ebd e559 0ebe
000003a0: 7e14 21bd c9c5 da3d 4faa 45bc f1b9 7cbd
000003b0: 76c0 4bbe 8884 f5bb 4ded 0abe 293d 75bd
000003c0: 01e6 f23d 6f8e 6e3d ae65 083e 59bb c03d
000003d0: 266e 9a3d 1902 17be 12b8 00be 9410 e2bc
000003e0: f558 09be 3348 52bd d49d 43be c61d 02be
000003f0: e59e 533d eb3f e3bd c4f3 6fbc 4700 1f3e
0.027390866 0.049120855 0.013381668 -0.002518429 0.05208025 -0.005626987 0.14650643 0.112787284
-0.17788102 -0.018317606 0.114168406 -0.07801899 0.015753634 -0.13307737 -0.072297074 -0.15668307
0.08999781 0.020638308 0.1156748 -0.016627556 0.09314547 -0.104984194 -0.018978572 -0.11956676
-0.019803688 -0.028765766 0.10379706 -0.10107003 -0.115092956 -0.16836008 -0.06452033 0.13723409
0.07798272 -0.07669271 -0.14466977 -0.06205309 0.020370347 -0.011365443 0.13843925 0.0249893
0.079126 0.1348608 0.112734064 0.039937586 -0.20921278 -0.0017072334 0.017778821 -0.20617363
-0.18079147 0.022319516 -0.021280799 -0.08401124 0.1088905 0.14944567 -0.0029928503 0.023217183
-0.1262572 -0.009162183 0.050018325 0.16554607 -0.07021772 -0.064165056 0.022505656 0.13884744
-0.09198454 -0.16797775 -0.014800353 -0.091420084 0.1169929 -0.18013763 0.19586301 0.022464404
0.06618881 -0.035666134 -0.05762433 -0.22534242 0.095417134 -0.036869586 0.035427354 -0.08778397
0.15400441 0.15684018 0.030838557 0.06078125 0.14925069 -0.020658044 0.03286925 0.08239151
-0.12275874 0.014217238 -0.0026460313 0.15060504 0.13256913 0.087438226 0.022075018 0.08024807
0.05271852 0.044494774 -0.044856742 -0.17149018 0.089818105 0.115047716 -0.08307926 0.1164121
0.18582542 -0.055362165 -0.0071669705 -0.13897638 -0.16585667 0.09845737 0.153578 0.10097306
0.038860954 0.06328484 0.14572032 0.097011164 -0.041446477 -0.18491858 -0.22141032 0.11581255
-0.08287438 0.031561 0.032421965 0.027562248 0.010007684 -0.17055237 -0.031939223 -0.13791782
-0.13123435 0.07102993 0.028475361 -0.072112404 -0.091849625 0.19408524 -0.022492392 0.10579252
-0.09665847 0.005817793 0.12592895 0.08579112 -0.0012018651 -0.01355517 -0.09259694 0.1815742
-0.11034409 0.19999616 -0.20675097 -0.016773695 0.022826735 -0.049445283 0.06798061 -0.09955907
0.08573508 0.10168887 0.040472414 0.10554227 0.18179034 -0.039222397 0.11908758 -0.07525987
0.0016209361 -0.0070820977 0.0357499 0.1487747 0.025115062 0.083442494 0.1427886 -0.10532257
0.050855454 0.04817072 0.0014958347 0.074154384 0.18741255 -0.06814757 0.16569091 0.14578734
0.14704111 -0.09320715 -0.19653487 -0.012129562 -0.037081946 0.017709909 0.074717514 -0.033525474
-0.14919417 0.10353478 0.08458073 -0.02043031 0.16071984 0.09413946 0.15290734 -0.031696867
0.07667569 -0.05251713 -0.0054909196 0.16400187 0.019135099 0.11173212 -0.03477575 0.18626536
0.084670484 0.020062469 -0.02049368 0.16050468 0.16045567 0.07246245 0.053723354 0.12865834
-0.028397605 -0.12814924 -0.012070983 0.03284478 -0.046541017 -0.06522168 0.14788064 0.10338815
0.10700879 0.10313115 0.06780877 -0.06059215 -0.09607415 -0.15830512 0.13549587 0.050731886
0.13512523 -0.12465378 0.035628635 -0.08556278 -0.041093007 -0.121249676 -0.03467213 -0.1390148
-0.039326183 0.10682256 -0.0120645305 -0.061700765 -0.19897637 -0.0074926056 -0.13567086 -0.05987278
0.11860276 0.058241304 0.13320038 0.09410734 0.075405404 -0.14746894 -0.12570217 -0.027595796
-0.1341284 -0.051338386 -0.19103175 -0.1270667 0.051665206 -0.11096176 -0.014645521 0.1552745

MatMul_2 f4 [1, 32]
00000000: fdf5 bbbe 3310 b9be 9f36 adbe c886 abbe
00000010: f009 4b3e c1a2 2c3e 7677 e53d c48e a5be
00000020: 573e 463e 48c1 b6be 2e4c 96bc 2855 4d3d
00000030: 1658 bdbe 14e7 383e d336 da3d 9648 6c3d
00000040: 2b12 aebe c2a8 b23d 5fbf 283e 927d eb3c
00000050: 26bf 3b3c c7df 3a3e 1beb ec3d d712 a9be
00000060: b8d2 783e 1178 ef3c 2efb 943d 847d 243e
00000070: 5231 a83d 1f21 ec3d 92df 103e e397 35bd
-0.36711112 -0.36145172 -0.33830735 -0.33501267 0.1982801 0.1685896 0.11204426 -0.32335484
0.19359718 -0.35694337 -0.018346872 0.05013004 -0.36981267 0.180569 0.10654988 0.05768641
-0.33998236 0.08723594 0.16479252 0.0287464 0.011459148 0.18249427 0.1156828 -0.33022186
0.24299133 0.029232057 0.07274471 0.16063505 0.08212532 0.11529755 0.14147785 -0.044334304
